node {
  name: "global_step/Initializer/zeros"
  op: "Const"
  attr {
    key: "_class"
    value {
      list {
        s: "loc:@global_step"
      }
    }
  }
  attr {
    key: "_output_shapes"
    value {
      list {
        shape {
        }
      }
    }
  }
  attr {
    key: "dtype"
    value {
      type: DT_INT64
    }
  }
  attr {
    key: "value"
    value {
      tensor {
        dtype: DT_INT64
        tensor_shape {
        }
        int64_val: 0
      }
    }
  }
}
node {
  name: "global_step"
  op: "VariableV2"
  attr {
    key: "_class"
    value {
      list {
        s: "loc:@global_step"
      }
    }
  }
  attr {
    key: "_output_shapes"
    value {
      list {
        shape {
        }
      }
    }
  }
  attr {
    key: "container"
    value {
      s: ""
    }
  }
  attr {
    key: "dtype"
    value {
      type: DT_INT64
    }
  }
  attr {
    key: "shape"
    value {
      shape {
      }
    }
  }
  attr {
    key: "shared_name"
    value {
      s: ""
    }
  }
}
node {
  name: "global_step/Assign"
  op: "Assign"
  input: "global_step"
  input: "global_step/Initializer/zeros"
  attr {
    key: "T"
    value {
      type: DT_INT64
    }
  }
  attr {
    key: "_class"
    value {
      list {
        s: "loc:@global_step"
      }
    }
  }
  attr {
    key: "_output_shapes"
    value {
      list {
        shape {
        }
      }
    }
  }
  attr {
    key: "use_locking"
    value {
      b: true
    }
  }
  attr {
    key: "validate_shape"
    value {
      b: true
    }
  }
}
node {
  name: "global_step/read"
  op: "Identity"
  input: "global_step"
  attr {
    key: "T"
    value {
      type: DT_INT64
    }
  }
  attr {
    key: "_class"
    value {
      list {
        s: "loc:@global_step"
      }
    }
  }
  attr {
    key: "_output_shapes"
    value {
      list {
        shape {
        }
      }
    }
  }
}
node {
  name: "SparseTensor/indices"
  op: "Const"
  attr {
    key: "_output_shapes"
    value {
      list {
        shape {
          dim {
            size: 196
          }
          dim {
            size: 2
          }
        }
      }
    }
  }
  attr {
    key: "dtype"
    value {
      type: DT_INT64
    }
  }
  attr {
    key: "value"
    value {
      tensor {
        dtype: DT_INT64
        tensor_shape {
          dim {
            size: 196
          }
          dim {
            size: 2
          }
        }
        tensor_content: "…"
      }
    }
  }
}
node {
  name: "SparseTensor/values"
  op: "Const"
  attr {
    key: "_output_shapes"
    value {
      list {
        shape {
          dim {
            size: 196
          }
        }
      }
    }
  }
  attr {
    key: "dtype"
    value {
      type: DT_STRING
    }
  }
  attr {
    key: "value"
    value {
      tensor {
        dtype: DT_STRING
        tensor_shape {
          dim {
            size: 196
          }
        }
        string_val: "red"
        string_val: "blue"
        string_val: "red"
        string_val: "blue"
        string_val: "red"
        string_val: "blue"
        string_val: "red"
        string_val: "blue"
        string_val: "red"
        string_val: "blue"
        string_val: "red"
        string_val: "blue"
        string_val: "red"
        string_val: "blue"
        string_val: "red"
        string_val: "blue"
        string_val: "red"
        string_val: "blue"
        string_val: "red"
        string_val: "blue"
        string_val: "red"
        string_val: "blue"
        string_val: "red"
        string_val: "blue"
        string_val: "red"
        string_val: "blue"
        string_val: "red"
        string_val: "blue"
        string_val: "red"
        string_val: "blue"
        string_val: "red"
        string_val: "blue"
        string_val: "red"
        string_val: "blue"
        string_val: "red"
        string_val: "blue"
        string_val: "red"
        string_val: "blue"
        string_val: "red"
        string_val: "blue"
        string_val: "red"
        string_val: "blue"
        string_val: "red"
        string_val: "blue"
        string_val: "red"
        string_val: "blue"
        string_val: "red"
        string_val: "blue"
        string_val: "red"
        string_val: "blue"
        string_val: "red"
        string_val: "blue"
        string_val: "red"
        string_val: "blue"
        string_val: "red"
        string_val: "blue"
        string_val: "red"
        string_val: "blue"
        string_val: "red"
        string_val: "blue"
        string_val: "red"
        string_val: "blue"
        string_val: "red"
        string_val: "blue"
        string_val: "red"
        string_val: "blue"
        string_val: "red"
        string_val: "blue"
        string_val: "red"
        string_val: "blue"
        string_val: "red"
        string_val: "blue"
        string_val: "red"
        string_val: "blue"
        string_val: "red"
        string_val: "blue"
        string_val: "red"
        string_val: "blue"
        string_val: "red"
        string_val: "blue"
        string_val: "red"
        string_val: "blue"
        string_val: "red"
        string_val: "blue"
        string_val: "red"
        string_val: "blue"
        string_val: "red"
        string_val: "blue"
        string_val: "red"
        string_val: "blue"
        string_val: "red"
        string_val: "blue"
        string_val: "red"
        string_val: "blue"
        string_val: "red"
        string_val: "blue"
        string_val: "red"
        string_val: "blue"
        string_val: "red"
        string_val: "blue"
        string_val: "red"
        string_val: "blue"
        string_val: "red"
        string_val: "blue"
        string_val: "red"
        string_val: "blue"
        string_val: "red"
        string_val: "blue"
        string_val: "red"
        string_val: "blue"
        string_val: "red"
        string_val: "blue"
        string_val: "red"
        string_val: "blue"
        string_val: "red"
        string_val: "blue"
        string_val: "red"
        string_val: "blue"
        string_val: "red"
        string_val: "blue"
        string_val: "red"
        string_val: "blue"
        string_val: "red"
        string_val: "blue"
        string_val: "red"
        string_val: "blue"
        string_val: "red"
        string_val: "blue"
        string_val: "red"
        string_val: "blue"
        string_val: "red"
        string_val: "blue"
        string_val: "red"
        string_val: "blue"
        string_val: "red"
        string_val: "blue"
        string_val: "red"
        string_val: "blue"
        string_val: "red"
        string_val: "blue"
        string_val: "red"
        string_val: "blue"
        string_val: "red"
        string_val: "blue"
        string_val: "red"
        string_val: "blue"
        string_val: "red"
        string_val: "blue"
        string_val: "red"
        string_val: "blue"
        string_val: "red"
        string_val: "blue"
        string_val: "red"
        string_val: "blue"
        string_val: "red"
        string_val: "blue"
        string_val: "red"
        string_val: "blue"
        string_val: "red"
        string_val: "blue"
        string_val: "red"
        string_val: "blue"
        string_val: "red"
        string_val: "blue"
        string_val: "red"
        string_val: "blue"
        string_val: "red"
        string_val: "blue"
        string_val: "red"
        string_val: "blue"
        string_val: "red"
        string_val: "blue"
        string_val: "red"
        string_val: "blue"
        string_val: "red"
        string_val: "blue"
        string_val: "red"
        string_val: "blue"
        string_val: "red"
        string_val: "blue"
        string_val: "red"
        string_val: "blue"
        string_val: "red"
        string_val: "blue"
        string_val: "red"
        string_val: "blue"
        string_val: "red"
        string_val: "blue"
        string_val: "red"
        string_val: "blue"
        string_val: "red"
        string_val: "blue"
        string_val: "red"
        string_val: "blue"
        string_val: "red"
        string_val: "blue"
      }
    }
  }
}
node {
  name: "SparseTensor/dense_shape"
  op: "Const"
  attr {
    key: "_output_shapes"
    value {
      list {
        shape {
          dim {
            size: 2
          }
        }
      }
    }
  }
  attr {
    key: "dtype"
    value {
      type: DT_INT64
    }
  }
  attr {
    key: "value"
    value {
      tensor {
        dtype: DT_INT64
        tensor_shape {
          dim {
            size: 2
          }
        }
        tensor_content: "\304\000\000\000\000\000\000\000\001\000\000\000\000\000\000\000"
      }
    }
  }
}
node {
  name: "SparseTensor_1/indices"
  op: "Const"
  attr {
    key: "_output_shapes"
    value {
      list {
        shape {
          dim {
            size: 196
          }
          dim {
            size: 2
          }
        }
      }
    }
  }
  attr {
    key: "dtype"
    value {
      type: DT_INT64
    }
  }
  attr {
    key: "value"
    value {
      tensor {
        dtype: DT_INT64
        tensor_shape {
          dim {
            size: 196
          }
          dim {
            size: 2
          }
        }
        tensor_content: "…"
      }
    }
  }
}
node {
  name: "SparseTensor_1/values"
  op: "Const"
  attr {
    key: "_output_shapes"
    value {
      list {
        shape {
          dim {
            size: 196
          }
        }
      }
    }
  }
  attr {
    key: "dtype"
    value {
      type: DT_DOUBLE
    }
  }
  attr {
    key: "value"
    value {
      tensor {
        dtype: DT_DOUBLE
        tensor_shape {
          dim {
            size: 196
          }
        }
        tensor_content: "…"
      }
    }
  }
}
node {
  name: "SparseTensor_1/dense_shape"
  op: "Const"
  attr {
    key: "_output_shapes"
    value {
      list {
        shape {
          dim {
            size: 2
          }
        }
      }
    }
  }
  attr {
    key: "dtype"
    value {
      type: DT_INT64
    }
  }
  attr {
    key: "value"
    value {
      tensor {
        dtype: DT_INT64
        tensor_shape {
          dim {
            size: 2
          }
        }
        tensor_content: "\304\000\000\000\000\000\000\000\001\000\000\000\000\000\000\000"
      }
    }
  }
}
node {
  name: "SparseTensor_2/indices"
  op: "Const"
  attr {
    key: "_output_shapes"
    value {
      list {
        shape {
          dim {
            size: 196
          }
          dim {
            size: 2
          }
        }
      }
    }
  }
  attr {
    key: "dtype"
    value {
      type: DT_INT64
    }
  }
  attr {
    key: "value"
    value {
      tensor {
        dtype: DT_INT64
        tensor_shape {
          dim {
            size: 196
          }
          dim {
            size: 2
          }
        }
        tensor_content: "…"
      }
    }
  }
}
node {
  name: "SparseTensor_2/values"
  op: "Const"
  attr {
    key: "_output_shapes"
    value {
      list {
        shape {
          dim {
            size: 196
          }
        }
      }
    }
  }
  attr {
    key: "dtype"
    value {
      type: DT_DOUBLE
    }
  }
  attr {
    key: "value"
    value {
      tensor {
        dtype: DT_DOUBLE
        tensor_shape {
          dim {
            size: 196
          }
        }
        tensor_content: "…"
      }
    }
  }
}
node {
  name: "SparseTensor_2/dense_shape"
  op: "Const"
  attr {
    key: "_output_shapes"
    value {
      list {
        shape {
          dim {
            size: 2
          }
        }
      }
    }
  }
  attr {
    key: "dtype"
    value {
      type: DT_INT64
    }
  }
  attr {
    key: "value"
    value {
      tensor {
        dtype: DT_INT64
        tensor_shape {
          dim {
            size: 2
          }
        }
        tensor_content: "\304\000\000\000\000\000\000\000\001\000\000\000\000\000\000\000"
      }
    }
  }
}
node {
  name: "SparseTensor_3/indices"
  op: "Const"
  attr {
    key: "_output_shapes"
    value {
      list {
        shape {
          dim {
            size: 196
          }
          dim {
            size: 2
          }
        }
      }
    }
  }
  attr {
    key: "dtype"
    value {
      type: DT_INT64
    }
  }
  attr {
    key: "value"
    value {
      tensor {
        dtype: DT_INT64
        tensor_shape {
          dim {
            size: 196
          }
          dim {
            size: 2
          }
        }
        tensor_content: "…"
      }
    }
  }
}
node {
  name: "SparseTensor_3/values"
  op: "Const"
  attr {
    key: "_output_shapes"
    value {
      list {
        shape {
          dim {
            size: 196
          }
        }
      }
    }
  }
  attr {
    key: "dtype"
    value {
      type: DT_DOUBLE
    }
  }
  attr {
    key: "value"
    value {
      tensor {
        dtype: DT_DOUBLE
        tensor_shape {
          dim {
            size: 196
          }
        }
        tensor_content: "…"
      }
    }
  }
}
node {
  name: "SparseTensor_3/dense_shape"
  op: "Const"
  attr {
    key: "_output_shapes"
    value {
      list {
        shape {
          dim {
            size: 2
          }
        }
      }
    }
  }
  attr {
    key: "dtype"
    value {
      type: DT_INT64
    }
  }
  attr {
    key: "value"
    value {
      tensor {
        dtype: DT_INT64
        tensor_shape {
          dim {
            size: 2
          }
        }
        tensor_content: "\304\000\000\000\000\000\000\000\001\000\000\000\000\000\000\000"
      }
    }
  }
}
node {
  name: "SparseTensor_4/indices"
  op: "Const"
  attr {
    key: "_output_shapes"
    value {
      list {
        shape {
          dim {
            size: 196
          }
          dim {
            size: 2
          }
        }
      }
    }
  }
  attr {
    key: "dtype"
    value {
      type: DT_INT64
    }
  }
  attr {
    key: "value"
    value {
      tensor {
        dtype: DT_INT64
        tensor_shape {
          dim {
            size: 196
          }
          dim {
            size: 2
          }
        }
        tensor_content: "…"
      }
    }
  }
}
node {
  name: "SparseTensor_4/values"
  op: "Const"
  attr {
    key: "_output_shapes"
    value {
      list {
        shape {
          dim {
            size: 196
          }
        }
      }
    }
  }
  attr {
    key: "dtype"
    value {
      type: DT_DOUBLE
    }
  }
  attr {
    key: "value"
    value {
      tensor {
        dtype: DT_DOUBLE
        tensor_shape {
          dim {
            size: 196
          }
        }
        tensor_content: "…"
      }
    }
  }
}
node {
  name: "SparseTensor_4/dense_shape"
  op: "Const"
  attr {
    key: "_output_shapes"
    value {
      list {
        shape {
          dim {
            size: 2
          }
        }
      }
    }
  }
  attr {
    key: "dtype"
    value {
      type: DT_INT64
    }
  }
  attr {
    key: "value"
    value {
      tensor {
        dtype: DT_INT64
        tensor_shape {
          dim {
            size: 2
          }
        }
        tensor_content: "\304\000\000\000\000\000\000\000\001\000\000\000\000\000\000\000"
      }
    }
  }
}
node {
  name: "SparseTensor_5/indices"
  op: "Const"
  attr {
    key: "_output_shapes"
    value {
      list {
        shape {
          dim {
            size: 196
          }
          dim {
            size: 2
          }
        }
      }
    }
  }
  attr {
    key: "dtype"
    value {
      type: DT_INT64
    }
  }
  attr {
    key: "value"
    value {
      tensor {
        dtype: DT_INT64
        tensor_shape {
          dim {
            size: 196
          }
          dim {
            size: 2
          }
        }
        tensor_content: "…"
      }
    }
  }
}
node {
  name: "SparseTensor_5/values"
  op: "Const"
  attr {
    key: "_output_shapes"
    value {
      list {
        shape {
          dim {
            size: 196
          }
        }
      }
    }
  }
  attr {
    key: "dtype"
    value {
      type: DT_DOUBLE
    }
  }
  attr {
    key: "value"
    value {
      tensor {
        dtype: DT_DOUBLE
        tensor_shape {
          dim {
            size: 196
          }
        }
        tensor_content: "…"
      }
    }
  }
}
node {
  name: "SparseTensor_5/dense_shape"
  op: "Const"
  attr {
    key: "_output_shapes"
    value {
      list {
        shape {
          dim {
            size: 2
          }
        }
      }
    }
  }
  attr {
    key: "dtype"
    value {
      type: DT_INT64
    }
  }
  attr {
    key: "value"
    value {
      tensor {
        dtype: DT_INT64
        tensor_shape {
          dim {
            size: 2
          }
        }
        tensor_content: "\304\000\000\000\000\000\000\000\001\000\000\000\000\000\000\000"
      }
    }
  }
}
node {
  name: "SparseTensor_6/indices"
  op: "Const"
  attr {
    key: "_output_shapes"
    value {
      list {
        shape {
          dim {
            size: 196
          }
          dim {
            size: 2
          }
        }
      }
    }
  }
  attr {
    key: "dtype"
    value {
      type: DT_INT64
    }
  }
  attr {
    key: "value"
    value {
      tensor {
        dtype: DT_INT64
        tensor_shape {
          dim {
            size: 196
          }
          dim {
            size: 2
          }
        }
        tensor_content: "…"
      }
    }
  }
}
node {
  name: "SparseTensor_6/values"
  op: "Const"
  attr {
    key: "_output_shapes"
    value {
      list {
        shape {
          dim {
            size: 196
          }
        }
      }
    }
  }
  attr {
    key: "dtype"
    value {
      type: DT_DOUBLE
    }
  }
  attr {
    key: "value"
    value {
      tensor {
        dtype: DT_DOUBLE
        tensor_shape {
          dim {
            size: 196
          }
        }
        tensor_content: "…"
      }
    }
  }
}
node {
  name: "SparseTensor_6/dense_shape"
  op: "Const"
  attr {
    key: "_output_shapes"
    value {
      list {
        shape {
          dim {
            size: 2
          }
        }
      }
    }
  }
  attr {
    key: "dtype"
    value {
      type: DT_INT64
    }
  }
  attr {
    key: "value"
    value {
      tensor {
        dtype: DT_INT64
        tensor_shape {
          dim {
            size: 2
          }
        }
        tensor_content: "\304\000\000\000\000\000\000\000\001\000\000\000\000\000\000\000"
      }
    }
  }
}
node {
  name: "SparseTensor_7/indices"
  op: "Const"
  attr {
    key: "_output_shapes"
    value {
      list {
        shape {
          dim {
            size: 196
          }
          dim {
            size: 2
          }
        }
      }
    }
  }
  attr {
    key: "dtype"
    value {
      type: DT_INT64
    }
  }
  attr {
    key: "value"
    value {
      tensor {
        dtype: DT_INT64
        tensor_shape {
          dim {
            size: 196
          }
          dim {
            size: 2
          }
        }
        tensor_content: "…"
      }
    }
  }
}
node {
  name: "SparseTensor_7/values"
  op: "Const"
  attr {
    key: "_output_shapes"
    value {
      list {
        shape {
          dim {
            size: 196
          }
        }
      }
    }
  }
  attr {
    key: "dtype"
    value {
      type: DT_DOUBLE
    }
  }
  attr {
    key: "value"
    value {
      tensor {
        dtype: DT_DOUBLE
        tensor_shape {
          dim {
            size: 196
          }
        }
        tensor_content: "…"
      }
    }
  }
}
node {
  name: "SparseTensor_7/dense_shape"
  op: "Const"
  attr {
    key: "_output_shapes"
    value {
      list {
        shape {
          dim {
            size: 2
          }
        }
      }
    }
  }
  attr {
    key: "dtype"
    value {
      type: DT_INT64
    }
  }
  attr {
    key: "value"
    value {
      tensor {
        dtype: DT_INT64
        tensor_shape {
          dim {
            size: 2
          }
        }
        tensor_content: "\304\000\000\000\000\000\000\000\001\000\000\000\000\000\000\000"
      }
    }
  }
}
node {
  name: "SparseTensor_8/indices"
  op: "Const"
  attr {
    key: "_output_shapes"
    value {
      list {
        shape {
          dim {
            size: 196
          }
          dim {
            size: 2
          }
        }
      }
    }
  }
  attr {
    key: "dtype"
    value {
      type: DT_INT64
    }
  }
  attr {
    key: "value"
    value {
      tensor {
        dtype: DT_INT64
        tensor_shape {
          dim {
            size: 196
          }
          dim {
            size: 2
          }
        }
        tensor_content: "…"
      }
    }
  }
}
node {
  name: "SparseTensor_8/values"
  op: "Const"
  attr {
    key: "_output_shapes"
    value {
      list {
        shape {
          dim {
            size: 196
          }
        }
      }
    }
  }
  attr {
    key: "dtype"
    value {
      type: DT_DOUBLE
    }
  }
  attr {
    key: "value"
    value {
      tensor {
        dtype: DT_DOUBLE
        tensor_shape {
          dim {
            size: 196
          }
        }
        tensor_content: "…"
      }
    }
  }
}
node {
  name: "SparseTensor_8/dense_shape"
  op: "Const"
  attr {
    key: "_output_shapes"
    value {
      list {
        shape {
          dim {
            size: 2
          }
        }
      }
    }
  }
  attr {
    key: "dtype"
    value {
      type: DT_INT64
    }
  }
  attr {
    key: "value"
    value {
      tensor {
        dtype: DT_INT64
        tensor_shape {
          dim {
            size: 2
          }
        }
        tensor_content: "\304\000\000\000\000\000\000\000\001\000\000\000\000\000\000\000"
      }
    }
  }
}
node {
  name: "SparseTensor_9/indices"
  op: "Const"
  attr {
    key: "_output_shapes"
    value {
      list {
        shape {
          dim {
            size: 196
          }
          dim {
            size: 2
          }
        }
      }
    }
  }
  attr {
    key: "dtype"
    value {
      type: DT_INT64
    }
  }
  attr {
    key: "value"
    value {
      tensor {
        dtype: DT_INT64
        tensor_shape {
          dim {
            size: 196
          }
          dim {
            size: 2
          }
        }
        tensor_content: "…"
      }
    }
  }
}
node {
  name: "SparseTensor_9/values"
  op: "Const"
  attr {
    key: "_output_shapes"
    value {
      list {
        shape {
          dim {
            size: 196
          }
        }
      }
    }
  }
  attr {
    key: "dtype"
    value {
      type: DT_DOUBLE
    }
  }
  attr {
    key: "value"
    value {
      tensor {
        dtype: DT_DOUBLE
        tensor_shape {
          dim {
            size: 196
          }
        }
        tensor_content: "…"
      }
    }
  }
}
node {
  name: "SparseTensor_9/dense_shape"
  op: "Const"
  attr {
    key: "_output_shapes"
    value {
      list {
        shape {
          dim {
            size: 2
          }
        }
      }
    }
  }
  attr {
    key: "dtype"
    value {
      type: DT_INT64
    }
  }
  attr {
    key: "value"
    value {
      tensor {
        dtype: DT_INT64
        tensor_shape {
          dim {
            size: 2
          }
        }
        tensor_content: "\304\000\000\000\000\000\000\000\001\000\000\000\000\000\000\000"
      }
    }
  }
}
node {
  name: "SparseTensor_10/indices"
  op: "Const"
  attr {
    key: "_output_shapes"
    value {
      list {
        shape {
          dim {
            size: 196
          }
          dim {
            size: 2
          }
        }
      }
    }
  }
  attr {
    key: "dtype"
    value {
      type: DT_INT64
    }
  }
  attr {
    key: "value"
    value {
      tensor {
        dtype: DT_INT64
        tensor_shape {
          dim {
            size: 196
          }
          dim {
            size: 2
          }
        }
        tensor_content: "…"
      }
    }
  }
}
node {
  name: "SparseTensor_10/values"
  op: "Const"
  attr {
    key: "_output_shapes"
    value {
      list {
        shape {
          dim {
            size: 196
          }
        }
      }
    }
  }
  attr {
    key: "dtype"
    value {
      type: DT_DOUBLE
    }
  }
  attr {
    key: "value"
    value {
      tensor {
        dtype: DT_DOUBLE
        tensor_shape {
          dim {
            size: 196
          }
        }
        tensor_content: "…"
      }
    }
  }
}
node {
  name: "SparseTensor_10/dense_shape"
  op: "Const"
  attr {
    key: "_output_shapes"
    value {
      list {
        shape {
          dim {
            size: 2
          }
        }
      }
    }
  }
  attr {
    key: "dtype"
    value {
      type: DT_INT64
    }
  }
  attr {
    key: "value"
    value {
      tensor {
        dtype: DT_INT64
        tensor_shape {
          dim {
            size: 2
          }
        }
        tensor_content: "\304\000\000\000\000\000\000\000\001\000\000\000\000\000\000\000"
      }
    }
  }
}
node {
  name: "Const"
  op: "Const"
  attr {
    key: "_output_shapes"
    value {
      list {
        shape {
          dim {
            size: 196
          }
        }
      }
    }
  }
  attr {
    key: "dtype"
    value {
      type: DT_INT64
    }
  }
  attr {
    key: "value"
    value {
      tensor {
        dtype: DT_INT64
        tensor_shape {
          dim {
            size: 196
          }
        }
        tensor_content: "…"
      }
    }
  }
}
node {
  name: "linear/linear/ToInt64"
  op: "Cast"
  input: "SparseTensor_1/values"
  attr {
    key: "DstT"
    value {
      type: DT_INT64
    }
  }
  attr {
    key: "SrcT"
    value {
      type: DT_DOUBLE
    }
  }
  attr {
    key: "_output_shapes"
    value {
      list {
        shape {
          dim {
            size: 196
          }
        }
      }
    }
  }
}
node {
  name: "linear/linear/ToInt64_1"
  op: "Cast"
  input: "SparseTensor_2/values"
  attr {
    key: "DstT"
    value {
      type: DT_INT64
    }
  }
  attr {
    key: "SrcT"
    value {
      type: DT_DOUBLE
    }
  }
  attr {
    key: "_output_shapes"
    value {
      list {
        shape {
          dim {
            size: 196
          }
        }
      }
    }
  }
}
node {
  name: "linear/linear/cross"
  op: "SparseFeatureCross"
  input: "SparseTensor_1/indices"
  input: "SparseTensor_2/indices"
  input: "linear/linear/ToInt64"
  input: "linear/linear/ToInt64_1"
  input: "SparseTensor_1/dense_shape"
  input: "SparseTensor_2/dense_shape"
  attr {
    key: "N"
    value {
      i: 2
    }
  }
  attr {
    key: "_output_shapes"
    value {
      list {
        shape {
          dim {
            size: -1
          }
          dim {
            size: 2
          }
        }
        shape {
          dim {
            size: -1
          }
        }
        shape {
          dim {
            size: 2
          }
        }
      }
    }
  }
  attr {
    key: "dense_types"
    value {
      list {
      }
    }
  }
  attr {
    key: "hashed_output"
    value {
      b: true
    }
  }
  attr {
    key: "internal_type"
    value {
      type: DT_INT64
    }
  }
  attr {
    key: "num_buckets"
    value {
      i: 1000000
    }
  }
  attr {
    key: "out_type"
    value {
      type: DT_INT64
    }
  }
  attr {
    key: "sparse_types"
    value {
      list {
        type: DT_INT64
        type: DT_INT64
      }
    }
  }
}
node {
  name: "linear/x_1_X_y_1/weights/part_0/Initializer/zeros"
  op: "Const"
  attr {
    key: "_class"
    value {
      list {
        s: "loc:@linear/x_1_X_y_1/weights/part_0"
      }
    }
  }
  attr {
    key: "_output_shapes"
    value {
      list {
        shape {
          dim {
            size: 1000000
          }
          dim {
            size: 1
          }
        }
      }
    }
  }
  attr {
    key: "dtype"
    value {
      type: DT_FLOAT
    }
  }
  attr {
    key: "value"
    value {
      tensor {
        dtype: DT_FLOAT
        tensor_shape {
          dim {
            size: 1000000
          }
          dim {
            size: 1
          }
        }
        float_val: 0.0
      }
    }
  }
}
node {
  name: "linear/x_1_X_y_1/weights/part_0"
  op: "VariableV2"
  attr {
    key: "_class"
    value {
      list {
        s: "loc:@linear/x_1_X_y_1/weights/part_0"
      }
    }
  }
  attr {
    key: "_output_shapes"
    value {
      list {
        shape {
          dim {
            size: 1000000
          }
          dim {
            size: 1
          }
        }
      }
    }
  }
  attr {
    key: "container"
    value {
      s: ""
    }
  }
  attr {
    key: "dtype"
    value {
      type: DT_FLOAT
    }
  }
  attr {
    key: "shape"
    value {
      shape {
        dim {
          size: 1000000
        }
        dim {
          size: 1
        }
      }
    }
  }
  attr {
    key: "shared_name"
    value {
      s: ""
    }
  }
}
node {
  name: "linear/x_1_X_y_1/weights/part_0/Assign"
  op: "Assign"
  input: "linear/x_1_X_y_1/weights/part_0"
  input: "linear/x_1_X_y_1/weights/part_0/Initializer/zeros"
  attr {
    key: "T"
    value {
      type: DT_FLOAT
    }
  }
  attr {
    key: "_class"
    value {
      list {
        s: "loc:@linear/x_1_X_y_1/weights/part_0"
      }
    }
  }
  attr {
    key: "_output_shapes"
    value {
      list {
        shape {
          dim {
            size: 1000000
          }
          dim {
            size: 1
          }
        }
      }
    }
  }
  attr {
    key: "use_locking"
    value {
      b: true
    }
  }
  attr {
    key: "validate_shape"
    value {
      b: true
    }
  }
}
node {
  name: "linear/x_1_X_y_1/weights/part_0/read"
  op: "Identity"
  input: "linear/x_1_X_y_1/weights/part_0"
  attr {
    key: "T"
    value {
      type: DT_FLOAT
    }
  }
  attr {
    key: "_class"
    value {
      list {
        s: "loc:@linear/x_1_X_y_1/weights/part_0"
      }
    }
  }
  attr {
    key: "_output_shapes"
    value {
      list {
        shape {
          dim {
            size: 1000000
          }
          dim {
            size: 1
          }
        }
      }
    }
  }
}
node {
  name: "linear/linear/x_1_X_y_1/x_1_X_y_1_weights/Slice/begin"
  op: "Const"
  attr {
    key: "_output_shapes"
    value {
      list {
        shape {
          dim {
            size: 1
          }
        }
      }
    }
  }
  attr {
    key: "dtype"
    value {
      type: DT_INT32
    }
  }
  attr {
    key: "value"
    value {
      tensor {
        dtype: DT_INT32
        tensor_shape {
          dim {
            size: 1
          }
        }
        int_val: 0
      }
    }
  }
}
node {
  name: "linear/linear/x_1_X_y_1/x_1_X_y_1_weights/Slice/size"
  op: "Const"
  attr {
    key: "_output_shapes"
    value {
      list {
        shape {
          dim {
            size: 1
          }
        }
      }
    }
  }
  attr {
    key: "dtype"
    value {
      type: DT_INT32
    }
  }
  attr {
    key: "value"
    value {
      tensor {
        dtype: DT_INT32
        tensor_shape {
          dim {
            size: 1
          }
        }
        int_val: 1
      }
    }
  }
}
node {
  name: "linear/linear/x_1_X_y_1/x_1_X_y_1_weights/Slice"
  op: "Slice"
  input: "linear/linear/cross:2"
  input: "linear/linear/x_1_X_y_1/x_1_X_y_1_weights/Slice/begin"
  input: "linear/linear/x_1_X_y_1/x_1_X_y_1_weights/Slice/size"
  attr {
    key: "Index"
    value {
      type: DT_INT32
    }
  }
  attr {
    key: "T"
    value {
      type: DT_INT64
    }
  }
  attr {
    key: "_output_shapes"
    value {
      list {
        shape {
          dim {
            size: 1
          }
        }
      }
    }
  }
}
node {
  name: "linear/linear/x_1_X_y_1/x_1_X_y_1_weights/Const"
  op: "Const"
  attr {
    key: "_output_shapes"
    value {
      list {
        shape {
          dim {
            size: 1
          }
        }
      }
    }
  }
  attr {
    key: "dtype"
    value {
      type: DT_INT32
    }
  }
  attr {
    key: "value"
    value {
      tensor {
        dtype: DT_INT32
        tensor_shape {
          dim {
            size: 1
          }
        }
        int_val: 0
      }
    }
  }
}
node {
  name: "linear/linear/x_1_X_y_1/x_1_X_y_1_weights/Prod"
  op: "Prod"
  input: "linear/linear/x_1_X_y_1/x_1_X_y_1_weights/Slice"
  input: "linear/linear/x_1_X_y_1/x_1_X_y_1_weights/Const"
  attr {
    key: "T"
    value {
      type: DT_INT64
    }
  }
  attr {
    key: "Tidx"
    value {
      type: DT_INT32
    }
  }
  attr {
    key: "_output_shapes"
    value {
      list {
        shape {
        }
      }
    }
  }
  attr {
    key: "keep_dims"
    value {
      b: false
    }
  }
}
node {
  name: "linear/linear/x_1_X_y_1/x_1_X_y_1_weights/Gather/indices"
  op: "Const"
  attr {
    key: "_output_shapes"
    value {
      list {
        shape {
        }
      }
    }
  }
  attr {
    key: "dtype"
    value {
      type: DT_INT32
    }
  }
  attr {
    key: "value"
    value {
      tensor {
        dtype: DT_INT32
        tensor_shape {
        }
        int_val: 1
      }
    }
  }
}
node {
  name: "linear/linear/x_1_X_y_1/x_1_X_y_1_weights/Gather"
  op: "Gather"
  input: "linear/linear/cross:2"
  input: "linear/linear/x_1_X_y_1/x_1_X_y_1_weights/Gather/indices"
  attr {
    key: "Tindices"
    value {
      type: DT_INT32
    }
  }
  attr {
    key: "Tparams"
    value {
      type: DT_INT64
    }
  }
  attr {
    key: "_output_shapes"
    value {
      list {
        shape {
        }
      }
    }
  }
  attr {
    key: "validate_indices"
    value {
      b: true
    }
  }
}
node {
  name: "linear/linear/x_1_X_y_1/x_1_X_y_1_weights/Cast/x"
  op: "Pack"
  input: "linear/linear/x_1_X_y_1/x_1_X_y_1_weights/Prod"
  input: "linear/linear/x_1_X_y_1/x_1_X_y_1_weights/Gather"
  attr {
    key: "N"
    value {
      i: 2
    }
  }
  attr {
    key: "T"
    value {
      type: DT_INT64
    }
  }
  attr {
    key: "_output_shapes"
    value {
      list {
        shape {
          dim {
            size: 2
          }
        }
      }
    }
  }
  attr {
    key: "axis"
    value {
      i: 0
    }
  }
}
node {
  name: "linear/linear/x_1_X_y_1/x_1_X_y_1_weights/SparseReshape"
  op: "SparseReshape"
  input: "linear/linear/cross"
  input: "linear/linear/cross:2"
  input: "linear/linear/x_1_X_y_1/x_1_X_y_1_weights/Cast/x"
  attr {
    key: "_output_shapes"
    value {
      list {
        shape {
          dim {
            size: -1
          }
          dim {
            size: 2
          }
        }
        shape {
          dim {
            size: 2
          }
        }
      }
    }
  }
}
node {
  name: "linear/linear/x_1_X_y_1/x_1_X_y_1_weights/SparseReshape/Identity"
  op: "Identity"
  input: "linear/linear/cross:1"
  attr {
    key: "T"
    value {
      type: DT_INT64
    }
  }
  attr {
    key: "_output_shapes"
    value {
      list {
        shape {
          dim {
            size: -1
          }
        }
      }
    }
  }
}
node {
  name: "linear/linear/x_1_X_y_1/x_1_X_y_1_weights/GreaterEqual/y"
  op: "Const"
  attr {
    key: "_output_shapes"
    value {
      list {
        shape {
        }
      }
    }
  }
  attr {
    key: "dtype"
    value {
      type: DT_INT64
    }
  }
  attr {
    key: "value"
    value {
      tensor {
        dtype: DT_INT64
        tensor_shape {
        }
        int64_val: 0
      }
    }
  }
}
node {
  name: "linear/linear/x_1_X_y_1/x_1_X_y_1_weights/GreaterEqual"
  op: "GreaterEqual"
  input: "linear/linear/x_1_X_y_1/x_1_X_y_1_weights/SparseReshape/Identity"
  input: "linear/linear/x_1_X_y_1/x_1_X_y_1_weights/GreaterEqual/y"
  attr {
    key: "T"
    value {
      type: DT_INT64
    }
  }
  attr {
    key: "_output_shapes"
    value {
      list {
        shape {
          dim {
            size: -1
          }
        }
      }
    }
  }
}
node {
  name: "linear/linear/x_1_X_y_1/x_1_X_y_1_weights/Where"
  op: "Where"
  input: "linear/linear/x_1_X_y_1/x_1_X_y_1_weights/GreaterEqual"
  attr {
    key: "_output_shapes"
    value {
      list {
        shape {
          dim {
            size: -1
          }
          dim {
            size: 1
          }
        }
      }
    }
  }
}
node {
  name: "linear/linear/x_1_X_y_1/x_1_X_y_1_weights/Reshape/shape"
  op: "Const"
  attr {
    key: "_output_shapes"
    value {
      list {
        shape {
          dim {
            size: 1
          }
        }
      }
    }
  }
  attr {
    key: "dtype"
    value {
      type: DT_INT32
    }
  }
  attr {
    key: "value"
    value {
      tensor {
        dtype: DT_INT32
        tensor_shape {
          dim {
            size: 1
          }
        }
        int_val: -1
      }
    }
  }
}
node {
  name: "linear/linear/x_1_X_y_1/x_1_X_y_1_weights/Reshape"
  op: "Reshape"
  input: "linear/linear/x_1_X_y_1/x_1_X_y_1_weights/Where"
  input: "linear/linear/x_1_X_y_1/x_1_X_y_1_weights/Reshape/shape"
  attr {
    key: "T"
    value {
      type: DT_INT64
    }
  }
  attr {
    key: "Tshape"
    value {
      type: DT_INT32
    }
  }
  attr {
    key: "_output_shapes"
    value {
      list {
        shape {
          dim {
            size: -1
          }
        }
      }
    }
  }
}
node {
  name: "linear/linear/x_1_X_y_1/x_1_X_y_1_weights/Gather_1"
  op: "Gather"
  input: "linear/linear/x_1_X_y_1/x_1_X_y_1_weights/SparseReshape"
  input: "linear/linear/x_1_X_y_1/x_1_X_y_1_weights/Reshape"
  attr {
    key: "Tindices"
    value {
      type: DT_INT64
    }
  }
  attr {
    key: "Tparams"
    value {
      type: DT_INT64
    }
  }
  attr {
    key: "_output_shapes"
    value {
      list {
        shape {
          dim {
            size: -1
          }
          dim {
            size: 2
          }
        }
      }
    }
  }
  attr {
    key: "validate_indices"
    value {
      b: true
    }
  }
}
node {
  name: "linear/linear/x_1_X_y_1/x_1_X_y_1_weights/Gather_2"
  op: "Gather"
  input: "linear/linear/x_1_X_y_1/x_1_X_y_1_weights/SparseReshape/Identity"
  input: "linear/linear/x_1_X_y_1/x_1_X_y_1_weights/Reshape"
  attr {
    key: "Tindices"
    value {
      type: DT_INT64
    }
  }
  attr {
    key: "Tparams"
    value {
      type: DT_INT64
    }
  }
  attr {
    key: "_output_shapes"
    value {
      list {
        shape {
          dim {
            size: -1
          }
        }
      }
    }
  }
  attr {
    key: "validate_indices"
    value {
      b: true
    }
  }
}
node {
  name: "linear/linear/x_1_X_y_1/x_1_X_y_1_weights/Identity"
  op: "Identity"
  input: "linear/linear/x_1_X_y_1/x_1_X_y_1_weights/SparseReshape:1"
  attr {
    key: "T"
    value {
      type: DT_INT64
    }
  }
  attr {
    key: "_output_shapes"
    value {
      list {
        shape {
          dim {
            size: 2
          }
        }
      }
    }
  }
}
node {
  name: "linear/linear/x_1_X_y_1/x_1_X_y_1_weights/SparseFillEmptyRows/Const"
  op: "Const"
  attr {
    key: "_output_shapes"
    value {
      list {
        shape {
        }
      }
    }
  }
  attr {
    key: "dtype"
    value {
      type: DT_INT64
    }
  }
  attr {
    key: "value"
    value {
      tensor {
        dtype: DT_INT64
        tensor_shape {
        }
        int64_val: 0
      }
    }
  }
}
node {
  name: "linear/linear/x_1_X_y_1/x_1_X_y_1_weights/SparseFillEmptyRows/strided_slice/stack"
  op: "Const"
  attr {
    key: "_output_shapes"
    value {
      list {
        shape {
          dim {
            size: 1
          }
        }
      }
    }
  }
  attr {
    key: "dtype"
    value {
      type: DT_INT32
    }
  }
  attr {
    key: "value"
    value {
      tensor {
        dtype: DT_INT32
        tensor_shape {
          dim {
            size: 1
          }
        }
        int_val: 0
      }
    }
  }
}
node {
  name: "linear/linear/x_1_X_y_1/x_1_X_y_1_weights/SparseFillEmptyRows/strided_slice/stack_1"
  op: "Const"
  attr {
    key: "_output_shapes"
    value {
      list {
        shape {
          dim {
            size: 1
          }
        }
      }
    }
  }
  attr {
    key: "dtype"
    value {
      type: DT_INT32
    }
  }
  attr {
    key: "value"
    value {
      tensor {
        dtype: DT_INT32
        tensor_shape {
          dim {
            size: 1
          }
        }
        int_val: 1
      }
    }
  }
}
node {
  name: "linear/linear/x_1_X_y_1/x_1_X_y_1_weights/SparseFillEmptyRows/strided_slice/stack_2"
  op: "Const"
  attr {
    key: "_output_shapes"
    value {
      list {
        shape {
          dim {
            size: 1
          }
        }
      }
    }
  }
  attr {
    key: "dtype"
    value {
      type: DT_INT32
    }
  }
  attr {
    key: "value"
    value {
      tensor {
        dtype: DT_INT32
        tensor_shape {
          dim {
            size: 1
          }
        }
        int_val: 1
      }
    }
  }
}
node {
  name: "linear/linear/x_1_X_y_1/x_1_X_y_1_weights/SparseFillEmptyRows/strided_slice"
  op: "StridedSlice"
  input: "linear/linear/x_1_X_y_1/x_1_X_y_1_weights/Identity"
  input: "linear/linear/x_1_X_y_1/x_1_X_y_1_weights/SparseFillEmptyRows/strided_slice/stack"
  input: "linear/linear/x_1_X_y_1/x_1_X_y_1_weights/SparseFillEmptyRows/strided_slice/stack_1"
  input: "linear/linear/x_1_X_y_1/x_1_X_y_1_weights/SparseFillEmptyRows/strided_slice/stack_2"
  attr {
    key: "Index"
    value {
      type: DT_INT32
    }
  }
  attr {
    key: "T"
    value {
      type: DT_INT64
    }
  }
  attr {
    key: "_output_shapes"
    value {
      list {
        shape {
        }
      }
    }
  }
  attr {
    key: "begin_mask"
    value {
      i: 0
    }
  }
  attr {
    key: "ellipsis_mask"
    value {
      i: 0
    }
  }
  attr {
    key: "end_mask"
    value {
      i: 0
    }
  }
  attr {
    key: "new_axis_mask"
    value {
      i: 0
    }
  }
  attr {
    key: "shrink_axis_mask"
    value {
      i: 1
    }
  }
}
node {
  name: "linear/linear/x_1_X_y_1/x_1_X_y_1_weights/SparseFillEmptyRows/Cast"
  op: "Cast"
  input: "linear/linear/x_1_X_y_1/x_1_X_y_1_weights/SparseFillEmptyRows/strided_slice"
  attr {
    key: "DstT"
    value {
      type: DT_INT32
    }
  }
  attr {
    key: "SrcT"
    value {
      type: DT_INT64
    }
  }
  attr {
    key: "_output_shapes"
    value {
      list {
        shape {
        }
      }
    }
  }
}
node {
  name: "linear/linear/x_1_X_y_1/x_1_X_y_1_weights/SparseFillEmptyRows/range/start"
  op: "Const"
  attr {
    key: "_output_shapes"
    value {
      list {
        shape {
        }
      }
    }
  }
  attr {
    key: "dtype"
    value {
      type: DT_INT32
    }
  }
  attr {
    key: "value"
    value {
      tensor {
        dtype: DT_INT32
        tensor_shape {
        }
        int_val: 0
      }
    }
  }
}
node {
  name: "linear/linear/x_1_X_y_1/x_1_X_y_1_weights/SparseFillEmptyRows/range/delta"
  op: "Const"
  attr {
    key: "_output_shapes"
    value {
      list {
        shape {
        }
      }
    }
  }
  attr {
    key: "dtype"
    value {
      type: DT_INT32
    }
  }
  attr {
    key: "value"
    value {
      tensor {
        dtype: DT_INT32
        tensor_shape {
        }
        int_val: 1
      }
    }
  }
}
node {
  name: "linear/linear/x_1_X_y_1/x_1_X_y_1_weights/SparseFillEmptyRows/range"
  op: "Range"
  input: "linear/linear/x_1_X_y_1/x_1_X_y_1_weights/SparseFillEmptyRows/range/start"
  input: "linear/linear/x_1_X_y_1/x_1_X_y_1_weights/SparseFillEmptyRows/Cast"
  input: "linear/linear/x_1_X_y_1/x_1_X_y_1_weights/SparseFillEmptyRows/range/delta"
  attr {
    key: "Tidx"
    value {
      type: DT_INT32
    }
  }
  attr {
    key: "_output_shapes"
    value {
      list {
        shape {
          dim {
            size: -1
          }
        }
      }
    }
  }
}
node {
  name: "linear/linear/x_1_X_y_1/x_1_X_y_1_weights/SparseFillEmptyRows/Cast_1"
  op: "Cast"
  input: "linear/linear/x_1_X_y_1/x_1_X_y_1_weights/SparseFillEmptyRows/range"
  attr {
    key: "DstT"
    value {
      type: DT_INT64
    }
  }
  attr {
    key: "SrcT"
    value {
      type: DT_INT32
    }
  }
  attr {
    key: "_output_shapes"
    value {
      list {
        shape {
          dim {
            size: -1
          }
        }
      }
    }
  }
}
node {
  name: "linear/linear/x_1_X_y_1/x_1_X_y_1_weights/SparseFillEmptyRows/strided_slice_1/stack"
  op: "Const"
  attr {
    key: "_output_shapes"
    value {
      list {
        shape {
          dim {
            size: 2
          }
        }
      }
    }
  }
  attr {
    key: "dtype"
    value {
      type: DT_INT32
    }
  }
  attr {
    key: "value"
    value {
      tensor {
        dtype: DT_INT32
        tensor_shape {
          dim {
            size: 2
          }
        }
        tensor_content: "\000\000\000\000\000\000\000\000"
      }
    }
  }
}
node {
  name: "linear/linear/x_1_X_y_1/x_1_X_y_1_weights/SparseFillEmptyRows/strided_slice_1/stack_1"
  op: "Const"
  attr {
    key: "_output_shapes"
    value {
      list {
        shape {
          dim {
            size: 2
          }
        }
      }
    }
  }
  attr {
    key: "dtype"
    value {
      type: DT_INT32
    }
  }
  attr {
    key: "value"
    value {
      tensor {
        dtype: DT_INT32
        tensor_shape {
          dim {
            size: 2
          }
        }
        tensor_content: "\000\000\000\000\001\000\000\000"
      }
    }
  }
}
node {
  name: "linear/linear/x_1_X_y_1/x_1_X_y_1_weights/SparseFillEmptyRows/strided_slice_1/stack_2"
  op: "Const"
  attr {
    key: "_output_shapes"
    value {
      list {
        shape {
          dim {
            size: 2
          }
        }
      }
    }
  }
  attr {
    key: "dtype"
    value {
      type: DT_INT32
    }
  }
  attr {
    key: "value"
    value {
      tensor {
        dtype: DT_INT32
        tensor_shape {
          dim {
            size: 2
          }
        }
        tensor_content: "\001\000\000\000\001\000\000\000"
      }
    }
  }
}
node {
  name: "linear/linear/x_1_X_y_1/x_1_X_y_1_weights/SparseFillEmptyRows/strided_slice_1"
  op: "StridedSlice"
  input: "linear/linear/x_1_X_y_1/x_1_X_y_1_weights/Gather_1"
  input: "linear/linear/x_1_X_y_1/x_1_X_y_1_weights/SparseFillEmptyRows/strided_slice_1/stack"
  input: "linear/linear/x_1_X_y_1/x_1_X_y_1_weights/SparseFillEmptyRows/strided_slice_1/stack_1"
  input: "linear/linear/x_1_X_y_1/x_1_X_y_1_weights/SparseFillEmptyRows/strided_slice_1/stack_2"
  attr {
    key: "Index"
    value {
      type: DT_INT32
    }
  }
  attr {
    key: "T"
    value {
      type: DT_INT64
    }
  }
  attr {
    key: "_output_shapes"
    value {
      list {
        shape {
          dim {
            size: -1
          }
        }
      }
    }
  }
  attr {
    key: "begin_mask"
    value {
      i: 1
    }
  }
  attr {
    key: "ellipsis_mask"
    value {
      i: 0
    }
  }
  attr {
    key: "end_mask"
    value {
      i: 1
    }
  }
  attr {
    key: "new_axis_mask"
    value {
      i: 0
    }
  }
  attr {
    key: "shrink_axis_mask"
    value {
      i: 2
    }
  }
}
node {
  name: "linear/linear/x_1_X_y_1/x_1_X_y_1_weights/SparseFillEmptyRows/ListDiff"
  op: "ListDiff"
  input: "linear/linear/x_1_X_y_1/x_1_X_y_1_weights/SparseFillEmptyRows/Cast_1"
  input: "linear/linear/x_1_X_y_1/x_1_X_y_1_weights/SparseFillEmptyRows/strided_slice_1"
  attr {
    key: "T"
    value {
      type: DT_INT64
    }
  }
  attr {
    key: "_output_shapes"
    value {
      list {
        shape {
          dim {
            size: -1
          }
        }
        shape {
          dim {
            size: -1
          }
        }
      }
    }
  }
  attr {
    key: "out_idx"
    value {
      type: DT_INT32
    }
  }
}
node {
  name: "linear/linear/x_1_X_y_1/x_1_X_y_1_weights/SparseFillEmptyRows/strided_slice_2/stack"
  op: "Const"
  attr {
    key: "_output_shapes"
    value {
      list {
        shape {
          dim {
            size: 1
          }
        }
      }
    }
  }
  attr {
    key: "dtype"
    value {
      type: DT_INT32
    }
  }
  attr {
    key: "value"
    value {
      tensor {
        dtype: DT_INT32
        tensor_shape {
          dim {
            size: 1
          }
        }
        int_val: 0
      }
    }
  }
}
node {
  name: "linear/linear/x_1_X_y_1/x_1_X_y_1_weights/SparseFillEmptyRows/strided_slice_2/stack_1"
  op: "Const"
  attr {
    key: "_output_shapes"
    value {
      list {
        shape {
          dim {
            size: 1
          }
        }
      }
    }
  }
  attr {
    key: "dtype"
    value {
      type: DT_INT32
    }
  }
  attr {
    key: "value"
    value {
      tensor {
        dtype: DT_INT32
        tensor_shape {
          dim {
            size: 1
          }
        }
        int_val: 1
      }
    }
  }
}
node {
  name: "linear/linear/x_1_X_y_1/x_1_X_y_1_weights/SparseFillEmptyRows/strided_slice_2/stack_2"
  op: "Const"
  attr {
    key: "_output_shapes"
    value {
      list {
        shape {
          dim {
            size: 1
          }
        }
      }
    }
  }
  attr {
    key: "dtype"
    value {
      type: DT_INT32
    }
  }
  attr {
    key: "value"
    value {
      tensor {
        dtype: DT_INT32
        tensor_shape {
          dim {
            size: 1
          }
        }
        int_val: 1
      }
    }
  }
}
node {
  name: "linear/linear/x_1_X_y_1/x_1_X_y_1_weights/SparseFillEmptyRows/strided_slice_2"
  op: "StridedSlice"
  input: "linear/linear/x_1_X_y_1/x_1_X_y_1_weights/Identity"
  input: "linear/linear/x_1_X_y_1/x_1_X_y_1_weights/SparseFillEmptyRows/strided_slice_2/stack"
  input: "linear/linear/x_1_X_y_1/x_1_X_y_1_weights/SparseFillEmptyRows/strided_slice_2/stack_1"
  input: "linear/linear/x_1_X_y_1/x_1_X_y_1_weights/SparseFillEmptyRows/strided_slice_2/stack_2"
  attr {
    key: "Index"
    value {
      type: DT_INT32
    }
  }
  attr {
    key: "T"
    value {
      type: DT_INT64
    }
  }
  attr {
    key: "_output_shapes"
    value {
      list {
        shape {
        }
      }
    }
  }
  attr {
    key: "begin_mask"
    value {
      i: 0
    }
  }
  attr {
    key: "ellipsis_mask"
    value {
      i: 0
    }
  }
  attr {
    key: "end_mask"
    value {
      i: 0
    }
  }
  attr {
    key: "new_axis_mask"
    value {
      i: 0
    }
  }
  attr {
    key: "shrink_axis_mask"
    value {
      i: 1
    }
  }
}
node {
  name: "linear/linear/x_1_X_y_1/x_1_X_y_1_weights/SparseFillEmptyRows/ExpandDims/dim"
  op: "Const"
  attr {
    key: "_output_shapes"
    value {
      list {
        shape {
        }
      }
    }
  }
  attr {
    key: "dtype"
    value {
      type: DT_INT32
    }
  }
  attr {
    key: "value"
    value {
      tensor {
        dtype: DT_INT32
        tensor_shape {
        }
        int_val: -1
      }
    }
  }
}
node {
  name: "linear/linear/x_1_X_y_1/x_1_X_y_1_weights/SparseFillEmptyRows/ExpandDims"
  op: "ExpandDims"
  input: "linear/linear/x_1_X_y_1/x_1_X_y_1_weights/SparseFillEmptyRows/strided_slice_2"
  input: "linear/linear/x_1_X_y_1/x_1_X_y_1_weights/SparseFillEmptyRows/ExpandDims/dim"
  attr {
    key: "T"
    value {
      type: DT_INT64
    }
  }
  attr {
    key: "Tdim"
    value {
      type: DT_INT32
    }
  }
  attr {
    key: "_output_shapes"
    value {
      list {
        shape {
          dim {
            size: 1
          }
        }
      }
    }
  }
}
node {
  name: "linear/linear/x_1_X_y_1/x_1_X_y_1_weights/SparseFillEmptyRows/SparseToDense/sparse_values"
  op: "Const"
  attr {
    key: "_output_shapes"
    value {
      list {
        shape {
        }
      }
    }
  }
  attr {
    key: "dtype"
    value {
      type: DT_BOOL
    }
  }
  attr {
    key: "value"
    value {
      tensor {
        dtype: DT_BOOL
        tensor_shape {
        }
        bool_val: true
      }
    }
  }
}
node {
  name: "linear/linear/x_1_X_y_1/x_1_X_y_1_weights/SparseFillEmptyRows/SparseToDense/default_value"
  op: "Const"
  attr {
    key: "_output_shapes"
    value {
      list {
        shape {
        }
      }
    }
  }
  attr {
    key: "dtype"
    value {
      type: DT_BOOL
    }
  }
  attr {
    key: "value"
    value {
      tensor {
        dtype: DT_BOOL
        tensor_shape {
        }
        bool_val: false
      }
    }
  }
}
node {
  name: "linear/linear/x_1_X_y_1/x_1_X_y_1_weights/SparseFillEmptyRows/SparseToDense"
  op: "SparseToDense"
  input: "linear/linear/x_1_X_y_1/x_1_X_y_1_weights/SparseFillEmptyRows/ListDiff"
  input: "linear/linear/x_1_X_y_1/x_1_X_y_1_weights/SparseFillEmptyRows/ExpandDims"
  input: "linear/linear/x_1_X_y_1/x_1_X_y_1_weights/SparseFillEmptyRows/SparseToDense/sparse_values"
  input: "linear/linear/x_1_X_y_1/x_1_X_y_1_weights/SparseFillEmptyRows/SparseToDense/default_value"
  attr {
    key: "T"
    value {
      type: DT_BOOL
    }
  }
  attr {
    key: "Tindices"
    value {
      type: DT_INT64
    }
  }
  attr {
    key: "_output_shapes"
    value {
      list {
        shape {
          dim {
            size: -1
          }
        }
      }
    }
  }
  attr {
    key: "validate_indices"
    value {
      b: true
    }
  }
}
node {
  name: "linear/linear/x_1_X_y_1/x_1_X_y_1_weights/SparseFillEmptyRows/Reshape/shape"
  op: "Const"
  attr {
    key: "_output_shapes"
    value {
      list {
        shape {
          dim {
            size: 2
          }
        }
      }
    }
  }
  attr {
    key: "dtype"
    value {
      type: DT_INT32
    }
  }
  attr {
    key: "value"
    value {
      tensor {
        dtype: DT_INT32
        tensor_shape {
          dim {
            size: 2
          }
        }
        tensor_content: "\377\377\377\377\001\000\000\000"
      }
    }
  }
}
node {
  name: "linear/linear/x_1_X_y_1/x_1_X_y_1_weights/SparseFillEmptyRows/Reshape"
  op: "Reshape"
  input: "linear/linear/x_1_X_y_1/x_1_X_y_1_weights/SparseFillEmptyRows/ListDiff"
  input: "linear/linear/x_1_X_y_1/x_1_X_y_1_weights/SparseFillEmptyRows/Reshape/shape"
  attr {
    key: "T"
    value {
      type: DT_INT64
    }
  }
  attr {
    key: "Tshape"
    value {
      type: DT_INT32
    }
  }
  attr {
    key: "_output_shapes"
    value {
      list {
        shape {
          dim {
            size: -1
          }
          dim {
            size: 1
          }
        }
      }
    }
  }
}
node {
  name: "linear/linear/x_1_X_y_1/x_1_X_y_1_weights/SparseFillEmptyRows/zeros_like"
  op: "ZerosLike"
  input: "linear/linear/x_1_X_y_1/x_1_X_y_1_weights/SparseFillEmptyRows/Reshape"
  attr {
    key: "T"
    value {
      type: DT_INT64
    }
  }
  attr {
    key: "_output_shapes"
    value {
      list {
        shape {
          dim {
            size: -1
          }
          dim {
            size: 1
          }
        }
      }
    }
  }
}
node {
  name: "linear/linear/x_1_X_y_1/x_1_X_y_1_weights/SparseFillEmptyRows/concat/axis"
  op: "Const"
  attr {
    key: "_output_shapes"
    value {
      list {
        shape {
        }
      }
    }
  }
  attr {
    key: "dtype"
    value {
      type: DT_INT32
    }
  }
  attr {
    key: "value"
    value {
      tensor {
        dtype: DT_INT32
        tensor_shape {
        }
        int_val: 1
      }
    }
  }
}
node {
  name: "linear/linear/x_1_X_y_1/x_1_X_y_1_weights/SparseFillEmptyRows/concat"
  op: "ConcatV2"
  input: "linear/linear/x_1_X_y_1/x_1_X_y_1_weights/SparseFillEmptyRows/Reshape"
  input: "linear/linear/x_1_X_y_1/x_1_X_y_1_weights/SparseFillEmptyRows/zeros_like"
  input: "linear/linear/x_1_X_y_1/x_1_X_y_1_weights/SparseFillEmptyRows/concat/axis"
  attr {
    key: "N"
    value {
      i: 2
    }
  }
  attr {
    key: "T"
    value {
      type: DT_INT64
    }
  }
  attr {
    key: "Tidx"
    value {
      type: DT_INT32
    }
  }
  attr {
    key: "_output_shapes"
    value {
      list {
        shape {
          dim {
            size: -1
          }
          dim {
            size: 2
          }
        }
      }
    }
  }
}
node {
  name: "linear/linear/x_1_X_y_1/x_1_X_y_1_weights/SparseFillEmptyRows/Shape"
  op: "Shape"
  input: "linear/linear/x_1_X_y_1/x_1_X_y_1_weights/SparseFillEmptyRows/ListDiff"
  attr {
    key: "T"
    value {
      type: DT_INT64
    }
  }
  attr {
    key: "_output_shapes"
    value {
      list {
        shape {
          dim {
            size: 1
          }
        }
      }
    }
  }
  attr {
    key: "out_type"
    value {
      type: DT_INT32
    }
  }
}
node {
  name: "linear/linear/x_1_X_y_1/x_1_X_y_1_weights/SparseFillEmptyRows/Fill"
  op: "Fill"
  input: "linear/linear/x_1_X_y_1/x_1_X_y_1_weights/SparseFillEmptyRows/Shape"
  input: "linear/linear/x_1_X_y_1/x_1_X_y_1_weights/SparseFillEmptyRows/Const"
  attr {
    key: "T"
    value {
      type: DT_INT64
    }
  }
  attr {
    key: "_output_shapes"
    value {
      list {
        shape {
          dim {
            size: -1
          }
        }
      }
    }
  }
}
node {
  name: "linear/linear/x_1_X_y_1/x_1_X_y_1_weights/SparseFillEmptyRows/concat_1/axis"
  op: "Const"
  attr {
    key: "_output_shapes"
    value {
      list {
        shape {
        }
      }
    }
  }
  attr {
    key: "dtype"
    value {
      type: DT_INT32
    }
  }
  attr {
    key: "value"
    value {
      tensor {
        dtype: DT_INT32
        tensor_shape {
        }
        int_val: 0
      }
    }
  }
}
node {
  name: "linear/linear/x_1_X_y_1/x_1_X_y_1_weights/SparseFillEmptyRows/concat_1"
  op: "ConcatV2"
  input: "linear/linear/x_1_X_y_1/x_1_X_y_1_weights/Gather_1"
  input: "linear/linear/x_1_X_y_1/x_1_X_y_1_weights/SparseFillEmptyRows/concat"
  input: "linear/linear/x_1_X_y_1/x_1_X_y_1_weights/SparseFillEmptyRows/concat_1/axis"
  attr {
    key: "N"
    value {
      i: 2
    }
  }
  attr {
    key: "T"
    value {
      type: DT_INT64
    }
  }
  attr {
    key: "Tidx"
    value {
      type: DT_INT32
    }
  }
  attr {
    key: "_output_shapes"
    value {
      list {
        shape {
          dim {
            size: -1
          }
          dim {
            size: 2
          }
        }
      }
    }
  }
}
node {
  name: "linear/linear/x_1_X_y_1/x_1_X_y_1_weights/SparseFillEmptyRows/concat_2/axis"
  op: "Const"
  attr {
    key: "_output_shapes"
    value {
      list {
        shape {
        }
      }
    }
  }
  attr {
    key: "dtype"
    value {
      type: DT_INT32
    }
  }
  attr {
    key: "value"
    value {
      tensor {
        dtype: DT_INT32
        tensor_shape {
        }
        int_val: 0
      }
    }
  }
}
node {
  name: "linear/linear/x_1_X_y_1/x_1_X_y_1_weights/SparseFillEmptyRows/concat_2"
  op: "ConcatV2"
  input: "linear/linear/x_1_X_y_1/x_1_X_y_1_weights/Gather_2"
  input: "linear/linear/x_1_X_y_1/x_1_X_y_1_weights/SparseFillEmptyRows/Fill"
  input: "linear/linear/x_1_X_y_1/x_1_X_y_1_weights/SparseFillEmptyRows/concat_2/axis"
  attr {
    key: "N"
    value {
      i: 2
    }
  }
  attr {
    key: "T"
    value {
      type: DT_INT64
    }
  }
  attr {
    key: "Tidx"
    value {
      type: DT_INT32
    }
  }
  attr {
    key: "_output_shapes"
    value {
      list {
        shape {
          dim {
            size: -1
          }
        }
      }
    }
  }
}
node {
  name: "linear/linear/x_1_X_y_1/x_1_X_y_1_weights/SparseFillEmptyRows/SparseReorder"
  op: "SparseReorder"
  input: "linear/linear/x_1_X_y_1/x_1_X_y_1_weights/SparseFillEmptyRows/concat_1"
  input: "linear/linear/x_1_X_y_1/x_1_X_y_1_weights/SparseFillEmptyRows/concat_2"
  input: "linear/linear/x_1_X_y_1/x_1_X_y_1_weights/Identity"
  attr {
    key: "T"
    value {
      type: DT_INT64
    }
  }
  attr {
    key: "_output_shapes"
    value {
      list {
        shape {
          dim {
            size: -1
          }
          dim {
            size: 2
          }
        }
        shape {
          dim {
            size: -1
          }
        }
      }
    }
  }
}
node {
  name: "linear/linear/x_1_X_y_1/x_1_X_y_1_weights/SparseFillEmptyRows/Identity"
  op: "Identity"
  input: "linear/linear/x_1_X_y_1/x_1_X_y_1_weights/Identity"
  attr {
    key: "T"
    value {
      type: DT_INT64
    }
  }
  attr {
    key: "_output_shapes"
    value {
      list {
        shape {
          dim {
            size: 2
          }
        }
      }
    }
  }
}
node {
  name: "linear/linear/x_1_X_y_1/x_1_X_y_1_weights/embedding_lookup_sparse/strided_slice/stack"
  op: "Const"
  attr {
    key: "_output_shapes"
    value {
      list {
        shape {
          dim {
            size: 2
          }
        }
      }
    }
  }
  attr {
    key: "dtype"
    value {
      type: DT_INT32
    }
  }
  attr {
    key: "value"
    value {
      tensor {
        dtype: DT_INT32
        tensor_shape {
          dim {
            size: 2
          }
        }
        tensor_content: "\000\000\000\000\000\000\000\000"
      }
    }
  }
}
node {
  name: "linear/linear/x_1_X_y_1/x_1_X_y_1_weights/embedding_lookup_sparse/strided_slice/stack_1"
  op: "Const"
  attr {
    key: "_output_shapes"
    value {
      list {
        shape {
          dim {
            size: 2
          }
        }
      }
    }
  }
  attr {
    key: "dtype"
    value {
      type: DT_INT32
    }
  }
  attr {
    key: "value"
    value {
      tensor {
        dtype: DT_INT32
        tensor_shape {
          dim {
            size: 2
          }
        }
        tensor_content: "\000\000\000\000\001\000\000\000"
      }
    }
  }
}
node {
  name: "linear/linear/x_1_X_y_1/x_1_X_y_1_weights/embedding_lookup_sparse/strided_slice/stack_2"
  op: "Const"
  attr {
    key: "_output_shapes"
    value {
      list {
        shape {
          dim {
            size: 2
          }
        }
      }
    }
  }
  attr {
    key: "dtype"
    value {
      type: DT_INT32
    }
  }
  attr {
    key: "value"
    value {
      tensor {
        dtype: DT_INT32
        tensor_shape {
          dim {
            size: 2
          }
        }
        tensor_content: "\001\000\000\000\001\000\000\000"
      }
    }
  }
}
node {
  name: "linear/linear/x_1_X_y_1/x_1_X_y_1_weights/embedding_lookup_sparse/strided_slice"
  op: "StridedSlice"
  input: "linear/linear/x_1_X_y_1/x_1_X_y_1_weights/SparseFillEmptyRows/SparseReorder"
  input: "linear/linear/x_1_X_y_1/x_1_X_y_1_weights/embedding_lookup_sparse/strided_slice/stack"
  input: "linear/linear/x_1_X_y_1/x_1_X_y_1_weights/embedding_lookup_sparse/strided_slice/stack_1"
  input: "linear/linear/x_1_X_y_1/x_1_X_y_1_weights/embedding_lookup_sparse/strided_slice/stack_2"
  attr {
    key: "Index"
    value {
      type: DT_INT32
    }
  }
  attr {
    key: "T"
    value {
      type: DT_INT64
    }
  }
  attr {
    key: "_output_shapes"
    value {
      list {
        shape {
          dim {
            size: -1
          }
        }
      }
    }
  }
  attr {
    key: "begin_mask"
    value {
      i: 1
    }
  }
  attr {
    key: "ellipsis_mask"
    value {
      i: 0
    }
  }
  attr {
    key: "end_mask"
    value {
      i: 1
    }
  }
  attr {
    key: "new_axis_mask"
    value {
      i: 0
    }
  }
  attr {
    key: "shrink_axis_mask"
    value {
      i: 2
    }
  }
}
node {
  name: "linear/linear/x_1_X_y_1/x_1_X_y_1_weights/embedding_lookup_sparse/Cast"
  op: "Cast"
  input: "linear/linear/x_1_X_y_1/x_1_X_y_1_weights/embedding_lookup_sparse/strided_slice"
  attr {
    key: "DstT"
    value {
      type: DT_INT32
    }
  }
  attr {
    key: "SrcT"
    value {
      type: DT_INT64
    }
  }
  attr {
    key: "_output_shapes"
    value {
      list {
        shape {
          dim {
            size: -1
          }
        }
      }
    }
  }
}
node {
  name: "linear/linear/x_1_X_y_1/x_1_X_y_1_weights/embedding_lookup_sparse/Unique"
  op: "Unique"
  input: "linear/linear/x_1_X_y_1/x_1_X_y_1_weights/SparseFillEmptyRows/SparseReorder:1"
  attr {
    key: "T"
    value {
      type: DT_INT64
    }
  }
  attr {
    key: "_output_shapes"
    value {
      list {
        shape {
          dim {
            size: -1
          }
        }
        shape {
          dim {
            size: -1
          }
        }
      }
    }
  }
  attr {
    key: "out_idx"
    value {
      type: DT_INT32
    }
  }
}
node {
  name: "linear/linear/x_1_X_y_1/x_1_X_y_1_weights/embedding_lookup_sparse/embedding_lookup"
  op: "Gather"
  input: "linear/x_1_X_y_1/weights/part_0/read"
  input: "linear/linear/x_1_X_y_1/x_1_X_y_1_weights/embedding_lookup_sparse/Unique"
  attr {
    key: "Tindices"
    value {
      type: DT_INT64
    }
  }
  attr {
    key: "Tparams"
    value {
      type: DT_FLOAT
    }
  }
  attr {
    key: "_class"
    value {
      list {
        s: "loc:@linear/x_1_X_y_1/weights/part_0"
      }
    }
  }
  attr {
    key: "_output_shapes"
    value {
      list {
        shape {
          dim {
            size: -1
          }
          dim {
            size: 1
          }
        }
      }
    }
  }
  attr {
    key: "validate_indices"
    value {
      b: true
    }
  }
}
node {
  name: "linear/linear/x_1_X_y_1/x_1_X_y_1_weights/embedding_lookup_sparse"
  op: "SparseSegmentSum"
  input: "linear/linear/x_1_X_y_1/x_1_X_y_1_weights/embedding_lookup_sparse/embedding_lookup"
  input: "linear/linear/x_1_X_y_1/x_1_X_y_1_weights/embedding_lookup_sparse/Unique:1"
  input: "linear/linear/x_1_X_y_1/x_1_X_y_1_weights/embedding_lookup_sparse/Cast"
  attr {
    key: "T"
    value {
      type: DT_FLOAT
    }
  }
  attr {
    key: "Tidx"
    value {
      type: DT_INT32
    }
  }
  attr {
    key: "_output_shapes"
    value {
      list {
        shape {
          dim {
            size: -1
          }
          dim {
            size: 1
          }
        }
      }
    }
  }
}
node {
  name: "linear/linear/x_1_X_y_1/x_1_X_y_1_weights/Reshape_1/shape"
  op: "Const"
  attr {
    key: "_output_shapes"
    value {
      list {
        shape {
          dim {
            size: 2
          }
        }
      }
    }
  }
  attr {
    key: "dtype"
    value {
      type: DT_INT32
    }
  }
  attr {
    key: "value"
    value {
      tensor {
        dtype: DT_INT32
        tensor_shape {
          dim {
            size: 2
          }
        }
        tensor_content: "\377\377\377\377\001\000\000\000"
      }
    }
  }
}
node {
  name: "linear/linear/x_1_X_y_1/x_1_X_y_1_weights/Reshape_1"
  op: "Reshape"
  input: "linear/linear/x_1_X_y_1/x_1_X_y_1_weights/SparseFillEmptyRows/SparseToDense"
  input: "linear/linear/x_1_X_y_1/x_1_X_y_1_weights/Reshape_1/shape"
  attr {
    key: "T"
    value {
      type: DT_BOOL
    }
  }
  attr {
    key: "Tshape"
    value {
      type: DT_INT32
    }
  }
  attr {
    key: "_output_shapes"
    value {
      list {
        shape {
          dim {
            size: -1
          }
          dim {
            size: 1
          }
        }
      }
    }
  }
}
node {
  name: "linear/linear/x_1_X_y_1/x_1_X_y_1_weights/Shape"
  op: "Shape"
  input: "linear/linear/x_1_X_y_1/x_1_X_y_1_weights/embedding_lookup_sparse"
  attr {
    key: "T"
    value {
      type: DT_FLOAT
    }
  }
  attr {
    key: "_output_shapes"
    value {
      list {
        shape {
          dim {
            size: 2
          }
        }
      }
    }
  }
  attr {
    key: "out_type"
    value {
      type: DT_INT32
    }
  }
}
node {
  name: "linear/linear/x_1_X_y_1/x_1_X_y_1_weights/strided_slice/stack"
  op: "Const"
  attr {
    key: "_output_shapes"
    value {
      list {
        shape {
          dim {
            size: 1
          }
        }
      }
    }
  }
  attr {
    key: "dtype"
    value {
      type: DT_INT32
    }
  }
  attr {
    key: "value"
    value {
      tensor {
        dtype: DT_INT32
        tensor_shape {
          dim {
            size: 1
          }
        }
        int_val: 1
      }
    }
  }
}
node {
  name: "linear/linear/x_1_X_y_1/x_1_X_y_1_weights/strided_slice/stack_1"
  op: "Const"
  attr {
    key: "_output_shapes"
    value {
      list {
        shape {
          dim {
            size: 1
          }
        }
      }
    }
  }
  attr {
    key: "dtype"
    value {
      type: DT_INT32
    }
  }
  attr {
    key: "value"
    value {
      tensor {
        dtype: DT_INT32
        tensor_shape {
          dim {
            size: 1
          }
        }
        int_val: 2
      }
    }
  }
}
node {
  name: "linear/linear/x_1_X_y_1/x_1_X_y_1_weights/strided_slice/stack_2"
  op: "Const"
  attr {
    key: "_output_shapes"
    value {
      list {
        shape {
          dim {
            size: 1
          }
        }
      }
    }
  }
  attr {
    key: "dtype"
    value {
      type: DT_INT32
    }
  }
  attr {
    key: "value"
    value {
      tensor {
        dtype: DT_INT32
        tensor_shape {
          dim {
            size: 1
          }
        }
        int_val: 1
      }
    }
  }
}
node {
  name: "linear/linear/x_1_X_y_1/x_1_X_y_1_weights/strided_slice"
  op: "StridedSlice"
  input: "linear/linear/x_1_X_y_1/x_1_X_y_1_weights/Shape"
  input: "linear/linear/x_1_X_y_1/x_1_X_y_1_weights/strided_slice/stack"
  input: "linear/linear/x_1_X_y_1/x_1_X_y_1_weights/strided_slice/stack_1"
  input: "linear/linear/x_1_X_y_1/x_1_X_y_1_weights/strided_slice/stack_2"
  attr {
    key: "Index"
    value {
      type: DT_INT32
    }
  }
  attr {
    key: "T"
    value {
      type: DT_INT32
    }
  }
  attr {
    key: "_output_shapes"
    value {
      list {
        shape {
        }
      }
    }
  }
  attr {
    key: "begin_mask"
    value {
      i: 0
    }
  }
  attr {
    key: "ellipsis_mask"
    value {
      i: 0
    }
  }
  attr {
    key: "end_mask"
    value {
      i: 0
    }
  }
  attr {
    key: "new_axis_mask"
    value {
      i: 0
    }
  }
  attr {
    key: "shrink_axis_mask"
    value {
      i: 1
    }
  }
}
node {
  name: "linear/linear/x_1_X_y_1/x_1_X_y_1_weights/stack/0"
  op: "Const"
  attr {
    key: "_output_shapes"
    value {
      list {
        shape {
        }
      }
    }
  }
  attr {
    key: "dtype"
    value {
      type: DT_INT32
    }
  }
  attr {
    key: "value"
    value {
      tensor {
        dtype: DT_INT32
        tensor_shape {
        }
        int_val: 1
      }
    }
  }
}
node {
  name: "linear/linear/x_1_X_y_1/x_1_X_y_1_weights/stack"
  op: "Pack"
  input: "linear/linear/x_1_X_y_1/x_1_X_y_1_weights/stack/0"
  input: "linear/linear/x_1_X_y_1/x_1_X_y_1_weights/strided_slice"
  attr {
    key: "N"
    value {
      i: 2
    }
  }
  attr {
    key: "T"
    value {
      type: DT_INT32
    }
  }
  attr {
    key: "_output_shapes"
    value {
      list {
        shape {
          dim {
            size: 2
          }
        }
      }
    }
  }
  attr {
    key: "axis"
    value {
      i: 0
    }
  }
}
node {
  name: "linear/linear/x_1_X_y_1/x_1_X_y_1_weights/Tile"
  op: "Tile"
  input: "linear/linear/x_1_X_y_1/x_1_X_y_1_weights/Reshape_1"
  input: "linear/linear/x_1_X_y_1/x_1_X_y_1_weights/stack"
  attr {
    key: "T"
    value {
      type: DT_BOOL
    }
  }
  attr {
    key: "Tmultiples"
    value {
      type: DT_INT32
    }
  }
  attr {
    key: "_output_shapes"
    value {
      list {
        shape {
          dim {
            size: -1
          }
          dim {
            size: -1
          }
        }
      }
    }
  }
}
node {
  name: "linear/linear/x_1_X_y_1/x_1_X_y_1_weights/zeros_like"
  op: "ZerosLike"
  input: "linear/linear/x_1_X_y_1/x_1_X_y_1_weights/embedding_lookup_sparse"
  attr {
    key: "T"
    value {
      type: DT_FLOAT
    }
  }
  attr {
    key: "_output_shapes"
    value {
      list {
        shape {
          dim {
            size: -1
          }
          dim {
            size: 1
          }
        }
      }
    }
  }
}
node {
  name: "linear/linear/x_1_X_y_1/x_1_X_y_1_weights"
  op: "Select"
  input: "linear/linear/x_1_X_y_1/x_1_X_y_1_weights/Tile"
  input: "linear/linear/x_1_X_y_1/x_1_X_y_1_weights/zeros_like"
  input: "linear/linear/x_1_X_y_1/x_1_X_y_1_weights/embedding_lookup_sparse"
  attr {
    key: "T"
    value {
      type: DT_FLOAT
    }
  }
  attr {
    key: "_output_shapes"
    value {
      list {
        shape {
          dim {
            size: -1
          }
          dim {
            size: 1
          }
        }
      }
    }
  }
}
node {
  name: "linear/linear/x_1_X_y_1/x_1_X_y_1_weights/Cast_1"
  op: "Cast"
  input: "linear/linear/cross:2"
  attr {
    key: "DstT"
    value {
      type: DT_INT32
    }
  }
  attr {
    key: "SrcT"
    value {
      type: DT_INT64
    }
  }
  attr {
    key: "_output_shapes"
    value {
      list {
        shape {
          dim {
            size: 2
          }
        }
      }
    }
  }
}
node {
  name: "linear/linear/x_1_X_y_1/x_1_X_y_1_weights/Slice_1/begin"
  op: "Const"
  attr {
    key: "_output_shapes"
    value {
      list {
        shape {
          dim {
            size: 1
          }
        }
      }
    }
  }
  attr {
    key: "dtype"
    value {
      type: DT_INT32
    }
  }
  attr {
    key: "value"
    value {
      tensor {
        dtype: DT_INT32
        tensor_shape {
          dim {
            size: 1
          }
        }
        int_val: 0
      }
    }
  }
}
node {
  name: "linear/linear/x_1_X_y_1/x_1_X_y_1_weights/Slice_1/size"
  op: "Const"
  attr {
    key: "_output_shapes"
    value {
      list {
        shape {
          dim {
            size: 1
          }
        }
      }
    }
  }
  attr {
    key: "dtype"
    value {
      type: DT_INT32
    }
  }
  attr {
    key: "value"
    value {
      tensor {
        dtype: DT_INT32
        tensor_shape {
          dim {
            size: 1
          }
        }
        int_val: 1
      }
    }
  }
}
node {
  name: "linear/linear/x_1_X_y_1/x_1_X_y_1_weights/Slice_1"
  op: "Slice"
  input: "linear/linear/x_1_X_y_1/x_1_X_y_1_weights/Cast_1"
  input: "linear/linear/x_1_X_y_1/x_1_X_y_1_weights/Slice_1/begin"
  input: "linear/linear/x_1_X_y_1/x_1_X_y_1_weights/Slice_1/size"
  attr {
    key: "Index"
    value {
      type: DT_INT32
    }
  }
  attr {
    key: "T"
    value {
      type: DT_INT32
    }
  }
  attr {
    key: "_output_shapes"
    value {
      list {
        shape {
          dim {
            size: 1
          }
        }
      }
    }
  }
}
node {
  name: "linear/linear/x_1_X_y_1/x_1_X_y_1_weights/Shape_1"
  op: "Shape"
  input: "linear/linear/x_1_X_y_1/x_1_X_y_1_weights"
  attr {
    key: "T"
    value {
      type: DT_FLOAT
    }
  }
  attr {
    key: "_output_shapes"
    value {
      list {
        shape {
          dim {
            size: 2
          }
        }
      }
    }
  }
  attr {
    key: "out_type"
    value {
      type: DT_INT32
    }
  }
}
node {
  name: "linear/linear/x_1_X_y_1/x_1_X_y_1_weights/Slice_2/begin"
  op: "Const"
  attr {
    key: "_output_shapes"
    value {
      list {
        shape {
          dim {
            size: 1
          }
        }
      }
    }
  }
  attr {
    key: "dtype"
    value {
      type: DT_INT32
    }
  }
  attr {
    key: "value"
    value {
      tensor {
        dtype: DT_INT32
        tensor_shape {
          dim {
            size: 1
          }
        }
        int_val: 1
      }
    }
  }
}
node {
  name: "linear/linear/x_1_X_y_1/x_1_X_y_1_weights/Slice_2/size"
  op: "Const"
  attr {
    key: "_output_shapes"
    value {
      list {
        shape {
          dim {
            size: 1
          }
        }
      }
    }
  }
  attr {
    key: "dtype"
    value {
      type: DT_INT32
    }
  }
  attr {
    key: "value"
    value {
      tensor {
        dtype: DT_INT32
        tensor_shape {
          dim {
            size: 1
          }
        }
        int_val: -1
      }
    }
  }
}
node {
  name: "linear/linear/x_1_X_y_1/x_1_X_y_1_weights/Slice_2"
  op: "Slice"
  input: "linear/linear/x_1_X_y_1/x_1_X_y_1_weights/Shape_1"
  input: "linear/linear/x_1_X_y_1/x_1_X_y_1_weights/Slice_2/begin"
  input: "linear/linear/x_1_X_y_1/x_1_X_y_1_weights/Slice_2/size"
  attr {
    key: "Index"
    value {
      type: DT_INT32
    }
  }
  attr {
    key: "T"
    value {
      type: DT_INT32
    }
  }
  attr {
    key: "_output_shapes"
    value {
      list {
        shape {
          dim {
            size: 1
          }
        }
      }
    }
  }
}
node {
  name: "linear/linear/x_1_X_y_1/x_1_X_y_1_weights/concat/axis"
  op: "Const"
  attr {
    key: "_output_shapes"
    value {
      list {
        shape {
        }
      }
    }
  }
  attr {
    key: "dtype"
    value {
      type: DT_INT32
    }
  }
  attr {
    key: "value"
    value {
      tensor {
        dtype: DT_INT32
        tensor_shape {
        }
        int_val: 0
      }
    }
  }
}
node {
  name: "linear/linear/x_1_X_y_1/x_1_X_y_1_weights/concat"
  op: "ConcatV2"
  input: "linear/linear/x_1_X_y_1/x_1_X_y_1_weights/Slice_1"
  input: "linear/linear/x_1_X_y_1/x_1_X_y_1_weights/Slice_2"
  input: "linear/linear/x_1_X_y_1/x_1_X_y_1_weights/concat/axis"
  attr {
    key: "N"
    value {
      i: 2
    }
  }
  attr {
    key: "T"
    value {
      type: DT_INT32
    }
  }
  attr {
    key: "Tidx"
    value {
      type: DT_INT32
    }
  }
  attr {
    key: "_output_shapes"
    value {
      list {
        shape {
          dim {
            size: 2
          }
        }
      }
    }
  }
}
node {
  name: "linear/linear/x_1_X_y_1/x_1_X_y_1_weights/Reshape_2"
  op: "Reshape"
  input: "linear/linear/x_1_X_y_1/x_1_X_y_1_weights"
  input: "linear/linear/x_1_X_y_1/x_1_X_y_1_weights/concat"
  attr {
    key: "T"
    value {
      type: DT_FLOAT
    }
  }
  attr {
    key: "Tshape"
    value {
      type: DT_INT32
    }
  }
  attr {
    key: "_output_shapes"
    value {
      list {
        shape {
          dim {
            size: -1
          }
          dim {
            size: 1
          }
        }
      }
    }
  }
}
node {
  name: "linear/linear/Reshape/shape"
  op: "Const"
  attr {
    key: "_output_shapes"
    value {
      list {
        shape {
          dim {
            size: 2
          }
        }
      }
    }
  }
  attr {
    key: "dtype"
    value {
      type: DT_INT32
    }
  }
  attr {
    key: "value"
    value {
      tensor {
        dtype: DT_INT32
        tensor_shape {
          dim {
            size: 2
          }
        }
        tensor_content: "\377\377\377\377\001\000\000\000"
      }
    }
  }
}
node {
  name: "linear/linear/Reshape"
  op: "Reshape"
  input: "linear/linear/x_1_X_y_1/x_1_X_y_1_weights/Reshape_2"
  input: "linear/linear/Reshape/shape"
  attr {
    key: "T"
    value {
      type: DT_FLOAT
    }
  }
  attr {
    key: "Tshape"
    value {
      type: DT_INT32
    }
  }
  attr {
    key: "_output_shapes"
    value {
      list {
        shape {
          dim {
            size: -1
          }
          dim {
            size: 1
          }
        }
      }
    }
  }
}
node {
  name: "linear/linear/ToInt64_2"
  op: "Cast"
  input: "SparseTensor_3/values"
  attr {
    key: "DstT"
    value {
      type: DT_INT64
    }
  }
  attr {
    key: "SrcT"
    value {
      type: DT_DOUBLE
    }
  }
  attr {
    key: "_output_shapes"
    value {
      list {
        shape {
          dim {
            size: 196
          }
        }
      }
    }
  }
}
node {
  name: "linear/linear/ToInt64_3"
  op: "Cast"
  input: "SparseTensor_4/values"
  attr {
    key: "DstT"
    value {
      type: DT_INT64
    }
  }
  attr {
    key: "SrcT"
    value {
      type: DT_DOUBLE
    }
  }
  attr {
    key: "_output_shapes"
    value {
      list {
        shape {
          dim {
            size: 196
          }
        }
      }
    }
  }
}
node {
  name: "linear/linear/cross_1"
  op: "SparseFeatureCross"
  input: "SparseTensor_3/indices"
  input: "SparseTensor_4/indices"
  input: "linear/linear/ToInt64_2"
  input: "linear/linear/ToInt64_3"
  input: "SparseTensor_3/dense_shape"
  input: "SparseTensor_4/dense_shape"
  attr {
    key: "N"
    value {
      i: 2
    }
  }
  attr {
    key: "_output_shapes"
    value {
      list {
        shape {
          dim {
            size: -1
          }
          dim {
            size: 2
          }
        }
        shape {
          dim {
            size: -1
          }
        }
        shape {
          dim {
            size: 2
          }
        }
      }
    }
  }
  attr {
    key: "dense_types"
    value {
      list {
      }
    }
  }
  attr {
    key: "hashed_output"
    value {
      b: true
    }
  }
  attr {
    key: "internal_type"
    value {
      type: DT_INT64
    }
  }
  attr {
    key: "num_buckets"
    value {
      i: 1000000
    }
  }
  attr {
    key: "out_type"
    value {
      type: DT_INT64
    }
  }
  attr {
    key: "sparse_types"
    value {
      list {
        type: DT_INT64
        type: DT_INT64
      }
    }
  }
}
node {
  name: "linear/x_2_X_y_2/weights/part_0/Initializer/zeros"
  op: "Const"
  attr {
    key: "_class"
    value {
      list {
        s: "loc:@linear/x_2_X_y_2/weights/part_0"
      }
    }
  }
  attr {
    key: "_output_shapes"
    value {
      list {
        shape {
          dim {
            size: 1000000
          }
          dim {
            size: 1
          }
        }
      }
    }
  }
  attr {
    key: "dtype"
    value {
      type: DT_FLOAT
    }
  }
  attr {
    key: "value"
    value {
      tensor {
        dtype: DT_FLOAT
        tensor_shape {
          dim {
            size: 1000000
          }
          dim {
            size: 1
          }
        }
        float_val: 0.0
      }
    }
  }
}
node {
  name: "linear/x_2_X_y_2/weights/part_0"
  op: "VariableV2"
  attr {
    key: "_class"
    value {
      list {
        s: "loc:@linear/x_2_X_y_2/weights/part_0"
      }
    }
  }
  attr {
    key: "_output_shapes"
    value {
      list {
        shape {
          dim {
            size: 1000000
          }
          dim {
            size: 1
          }
        }
      }
    }
  }
  attr {
    key: "container"
    value {
      s: ""
    }
  }
  attr {
    key: "dtype"
    value {
      type: DT_FLOAT
    }
  }
  attr {
    key: "shape"
    value {
      shape {
        dim {
          size: 1000000
        }
        dim {
          size: 1
        }
      }
    }
  }
  attr {
    key: "shared_name"
    value {
      s: ""
    }
  }
}
node {
  name: "linear/x_2_X_y_2/weights/part_0/Assign"
  op: "Assign"
  input: "linear/x_2_X_y_2/weights/part_0"
  input: "linear/x_2_X_y_2/weights/part_0/Initializer/zeros"
  attr {
    key: "T"
    value {
      type: DT_FLOAT
    }
  }
  attr {
    key: "_class"
    value {
      list {
        s: "loc:@linear/x_2_X_y_2/weights/part_0"
      }
    }
  }
  attr {
    key: "_output_shapes"
    value {
      list {
        shape {
          dim {
            size: 1000000
          }
          dim {
            size: 1
          }
        }
      }
    }
  }
  attr {
    key: "use_locking"
    value {
      b: true
    }
  }
  attr {
    key: "validate_shape"
    value {
      b: true
    }
  }
}
node {
  name: "linear/x_2_X_y_2/weights/part_0/read"
  op: "Identity"
  input: "linear/x_2_X_y_2/weights/part_0"
  attr {
    key: "T"
    value {
      type: DT_FLOAT
    }
  }
  attr {
    key: "_class"
    value {
      list {
        s: "loc:@linear/x_2_X_y_2/weights/part_0"
      }
    }
  }
  attr {
    key: "_output_shapes"
    value {
      list {
        shape {
          dim {
            size: 1000000
          }
          dim {
            size: 1
          }
        }
      }
    }
  }
}
node {
  name: "linear/linear/x_2_X_y_2/x_2_X_y_2_weights/Slice/begin"
  op: "Const"
  attr {
    key: "_output_shapes"
    value {
      list {
        shape {
          dim {
            size: 1
          }
        }
      }
    }
  }
  attr {
    key: "dtype"
    value {
      type: DT_INT32
    }
  }
  attr {
    key: "value"
    value {
      tensor {
        dtype: DT_INT32
        tensor_shape {
          dim {
            size: 1
          }
        }
        int_val: 0
      }
    }
  }
}
node {
  name: "linear/linear/x_2_X_y_2/x_2_X_y_2_weights/Slice/size"
  op: "Const"
  attr {
    key: "_output_shapes"
    value {
      list {
        shape {
          dim {
            size: 1
          }
        }
      }
    }
  }
  attr {
    key: "dtype"
    value {
      type: DT_INT32
    }
  }
  attr {
    key: "value"
    value {
      tensor {
        dtype: DT_INT32
        tensor_shape {
          dim {
            size: 1
          }
        }
        int_val: 1
      }
    }
  }
}
node {
  name: "linear/linear/x_2_X_y_2/x_2_X_y_2_weights/Slice"
  op: "Slice"
  input: "linear/linear/cross_1:2"
  input: "linear/linear/x_2_X_y_2/x_2_X_y_2_weights/Slice/begin"
  input: "linear/linear/x_2_X_y_2/x_2_X_y_2_weights/Slice/size"
  attr {
    key: "Index"
    value {
      type: DT_INT32
    }
  }
  attr {
    key: "T"
    value {
      type: DT_INT64
    }
  }
  attr {
    key: "_output_shapes"
    value {
      list {
        shape {
          dim {
            size: 1
          }
        }
      }
    }
  }
}
node {
  name: "linear/linear/x_2_X_y_2/x_2_X_y_2_weights/Const"
  op: "Const"
  attr {
    key: "_output_shapes"
    value {
      list {
        shape {
          dim {
            size: 1
          }
        }
      }
    }
  }
  attr {
    key: "dtype"
    value {
      type: DT_INT32
    }
  }
  attr {
    key: "value"
    value {
      tensor {
        dtype: DT_INT32
        tensor_shape {
          dim {
            size: 1
          }
        }
        int_val: 0
      }
    }
  }
}
node {
  name: "linear/linear/x_2_X_y_2/x_2_X_y_2_weights/Prod"
  op: "Prod"
  input: "linear/linear/x_2_X_y_2/x_2_X_y_2_weights/Slice"
  input: "linear/linear/x_2_X_y_2/x_2_X_y_2_weights/Const"
  attr {
    key: "T"
    value {
      type: DT_INT64
    }
  }
  attr {
    key: "Tidx"
    value {
      type: DT_INT32
    }
  }
  attr {
    key: "_output_shapes"
    value {
      list {
        shape {
        }
      }
    }
  }
  attr {
    key: "keep_dims"
    value {
      b: false
    }
  }
}
node {
  name: "linear/linear/x_2_X_y_2/x_2_X_y_2_weights/Gather/indices"
  op: "Const"
  attr {
    key: "_output_shapes"
    value {
      list {
        shape {
        }
      }
    }
  }
  attr {
    key: "dtype"
    value {
      type: DT_INT32
    }
  }
  attr {
    key: "value"
    value {
      tensor {
        dtype: DT_INT32
        tensor_shape {
        }
        int_val: 1
      }
    }
  }
}
node {
  name: "linear/linear/x_2_X_y_2/x_2_X_y_2_weights/Gather"
  op: "Gather"
  input: "linear/linear/cross_1:2"
  input: "linear/linear/x_2_X_y_2/x_2_X_y_2_weights/Gather/indices"
  attr {
    key: "Tindices"
    value {
      type: DT_INT32
    }
  }
  attr {
    key: "Tparams"
    value {
      type: DT_INT64
    }
  }
  attr {
    key: "_output_shapes"
    value {
      list {
        shape {
        }
      }
    }
  }
  attr {
    key: "validate_indices"
    value {
      b: true
    }
  }
}
node {
  name: "linear/linear/x_2_X_y_2/x_2_X_y_2_weights/Cast/x"
  op: "Pack"
  input: "linear/linear/x_2_X_y_2/x_2_X_y_2_weights/Prod"
  input: "linear/linear/x_2_X_y_2/x_2_X_y_2_weights/Gather"
  attr {
    key: "N"
    value {
      i: 2
    }
  }
  attr {
    key: "T"
    value {
      type: DT_INT64
    }
  }
  attr {
    key: "_output_shapes"
    value {
      list {
        shape {
          dim {
            size: 2
          }
        }
      }
    }
  }
  attr {
    key: "axis"
    value {
      i: 0
    }
  }
}
node {
  name: "linear/linear/x_2_X_y_2/x_2_X_y_2_weights/SparseReshape"
  op: "SparseReshape"
  input: "linear/linear/cross_1"
  input: "linear/linear/cross_1:2"
  input: "linear/linear/x_2_X_y_2/x_2_X_y_2_weights/Cast/x"
  attr {
    key: "_output_shapes"
    value {
      list {
        shape {
          dim {
            size: -1
          }
          dim {
            size: 2
          }
        }
        shape {
          dim {
            size: 2
          }
        }
      }
    }
  }
}
node {
  name: "linear/linear/x_2_X_y_2/x_2_X_y_2_weights/SparseReshape/Identity"
  op: "Identity"
  input: "linear/linear/cross_1:1"
  attr {
    key: "T"
    value {
      type: DT_INT64
    }
  }
  attr {
    key: "_output_shapes"
    value {
      list {
        shape {
          dim {
            size: -1
          }
        }
      }
    }
  }
}
node {
  name: "linear/linear/x_2_X_y_2/x_2_X_y_2_weights/GreaterEqual/y"
  op: "Const"
  attr {
    key: "_output_shapes"
    value {
      list {
        shape {
        }
      }
    }
  }
  attr {
    key: "dtype"
    value {
      type: DT_INT64
    }
  }
  attr {
    key: "value"
    value {
      tensor {
        dtype: DT_INT64
        tensor_shape {
        }
        int64_val: 0
      }
    }
  }
}
node {
  name: "linear/linear/x_2_X_y_2/x_2_X_y_2_weights/GreaterEqual"
  op: "GreaterEqual"
  input: "linear/linear/x_2_X_y_2/x_2_X_y_2_weights/SparseReshape/Identity"
  input: "linear/linear/x_2_X_y_2/x_2_X_y_2_weights/GreaterEqual/y"
  attr {
    key: "T"
    value {
      type: DT_INT64
    }
  }
  attr {
    key: "_output_shapes"
    value {
      list {
        shape {
          dim {
            size: -1
          }
        }
      }
    }
  }
}
node {
  name: "linear/linear/x_2_X_y_2/x_2_X_y_2_weights/Where"
  op: "Where"
  input: "linear/linear/x_2_X_y_2/x_2_X_y_2_weights/GreaterEqual"
  attr {
    key: "_output_shapes"
    value {
      list {
        shape {
          dim {
            size: -1
          }
          dim {
            size: 1
          }
        }
      }
    }
  }
}
node {
  name: "linear/linear/x_2_X_y_2/x_2_X_y_2_weights/Reshape/shape"
  op: "Const"
  attr {
    key: "_output_shapes"
    value {
      list {
        shape {
          dim {
            size: 1
          }
        }
      }
    }
  }
  attr {
    key: "dtype"
    value {
      type: DT_INT32
    }
  }
  attr {
    key: "value"
    value {
      tensor {
        dtype: DT_INT32
        tensor_shape {
          dim {
            size: 1
          }
        }
        int_val: -1
      }
    }
  }
}
node {
  name: "linear/linear/x_2_X_y_2/x_2_X_y_2_weights/Reshape"
  op: "Reshape"
  input: "linear/linear/x_2_X_y_2/x_2_X_y_2_weights/Where"
  input: "linear/linear/x_2_X_y_2/x_2_X_y_2_weights/Reshape/shape"
  attr {
    key: "T"
    value {
      type: DT_INT64
    }
  }
  attr {
    key: "Tshape"
    value {
      type: DT_INT32
    }
  }
  attr {
    key: "_output_shapes"
    value {
      list {
        shape {
          dim {
            size: -1
          }
        }
      }
    }
  }
}
node {
  name: "linear/linear/x_2_X_y_2/x_2_X_y_2_weights/Gather_1"
  op: "Gather"
  input: "linear/linear/x_2_X_y_2/x_2_X_y_2_weights/SparseReshape"
  input: "linear/linear/x_2_X_y_2/x_2_X_y_2_weights/Reshape"
  attr {
    key: "Tindices"
    value {
      type: DT_INT64
    }
  }
  attr {
    key: "Tparams"
    value {
      type: DT_INT64
    }
  }
  attr {
    key: "_output_shapes"
    value {
      list {
        shape {
          dim {
            size: -1
          }
          dim {
            size: 2
          }
        }
      }
    }
  }
  attr {
    key: "validate_indices"
    value {
      b: true
    }
  }
}
node {
  name: "linear/linear/x_2_X_y_2/x_2_X_y_2_weights/Gather_2"
  op: "Gather"
  input: "linear/linear/x_2_X_y_2/x_2_X_y_2_weights/SparseReshape/Identity"
  input: "linear/linear/x_2_X_y_2/x_2_X_y_2_weights/Reshape"
  attr {
    key: "Tindices"
    value {
      type: DT_INT64
    }
  }
  attr {
    key: "Tparams"
    value {
      type: DT_INT64
    }
  }
  attr {
    key: "_output_shapes"
    value {
      list {
        shape {
          dim {
            size: -1
          }
        }
      }
    }
  }
  attr {
    key: "validate_indices"
    value {
      b: true
    }
  }
}
node {
  name: "linear/linear/x_2_X_y_2/x_2_X_y_2_weights/Identity"
  op: "Identity"
  input: "linear/linear/x_2_X_y_2/x_2_X_y_2_weights/SparseReshape:1"
  attr {
    key: "T"
    value {
      type: DT_INT64
    }
  }
  attr {
    key: "_output_shapes"
    value {
      list {
        shape {
          dim {
            size: 2
          }
        }
      }
    }
  }
}
node {
  name: "linear/linear/x_2_X_y_2/x_2_X_y_2_weights/SparseFillEmptyRows/Const"
  op: "Const"
  attr {
    key: "_output_shapes"
    value {
      list {
        shape {
        }
      }
    }
  }
  attr {
    key: "dtype"
    value {
      type: DT_INT64
    }
  }
  attr {
    key: "value"
    value {
      tensor {
        dtype: DT_INT64
        tensor_shape {
        }
        int64_val: 0
      }
    }
  }
}
node {
  name: "linear/linear/x_2_X_y_2/x_2_X_y_2_weights/SparseFillEmptyRows/strided_slice/stack"
  op: "Const"
  attr {
    key: "_output_shapes"
    value {
      list {
        shape {
          dim {
            size: 1
          }
        }
      }
    }
  }
  attr {
    key: "dtype"
    value {
      type: DT_INT32
    }
  }
  attr {
    key: "value"
    value {
      tensor {
        dtype: DT_INT32
        tensor_shape {
          dim {
            size: 1
          }
        }
        int_val: 0
      }
    }
  }
}
node {
  name: "linear/linear/x_2_X_y_2/x_2_X_y_2_weights/SparseFillEmptyRows/strided_slice/stack_1"
  op: "Const"
  attr {
    key: "_output_shapes"
    value {
      list {
        shape {
          dim {
            size: 1
          }
        }
      }
    }
  }
  attr {
    key: "dtype"
    value {
      type: DT_INT32
    }
  }
  attr {
    key: "value"
    value {
      tensor {
        dtype: DT_INT32
        tensor_shape {
          dim {
            size: 1
          }
        }
        int_val: 1
      }
    }
  }
}
node {
  name: "linear/linear/x_2_X_y_2/x_2_X_y_2_weights/SparseFillEmptyRows/strided_slice/stack_2"
  op: "Const"
  attr {
    key: "_output_shapes"
    value {
      list {
        shape {
          dim {
            size: 1
          }
        }
      }
    }
  }
  attr {
    key: "dtype"
    value {
      type: DT_INT32
    }
  }
  attr {
    key: "value"
    value {
      tensor {
        dtype: DT_INT32
        tensor_shape {
          dim {
            size: 1
          }
        }
        int_val: 1
      }
    }
  }
}
node {
  name: "linear/linear/x_2_X_y_2/x_2_X_y_2_weights/SparseFillEmptyRows/strided_slice"
  op: "StridedSlice"
  input: "linear/linear/x_2_X_y_2/x_2_X_y_2_weights/Identity"
  input: "linear/linear/x_2_X_y_2/x_2_X_y_2_weights/SparseFillEmptyRows/strided_slice/stack"
  input: "linear/linear/x_2_X_y_2/x_2_X_y_2_weights/SparseFillEmptyRows/strided_slice/stack_1"
  input: "linear/linear/x_2_X_y_2/x_2_X_y_2_weights/SparseFillEmptyRows/strided_slice/stack_2"
  attr {
    key: "Index"
    value {
      type: DT_INT32
    }
  }
  attr {
    key: "T"
    value {
      type: DT_INT64
    }
  }
  attr {
    key: "_output_shapes"
    value {
      list {
        shape {
        }
      }
    }
  }
  attr {
    key: "begin_mask"
    value {
      i: 0
    }
  }
  attr {
    key: "ellipsis_mask"
    value {
      i: 0
    }
  }
  attr {
    key: "end_mask"
    value {
      i: 0
    }
  }
  attr {
    key: "new_axis_mask"
    value {
      i: 0
    }
  }
  attr {
    key: "shrink_axis_mask"
    value {
      i: 1
    }
  }
}
node {
  name: "linear/linear/x_2_X_y_2/x_2_X_y_2_weights/SparseFillEmptyRows/Cast"
  op: "Cast"
  input: "linear/linear/x_2_X_y_2/x_2_X_y_2_weights/SparseFillEmptyRows/strided_slice"
  attr {
    key: "DstT"
    value {
      type: DT_INT32
    }
  }
  attr {
    key: "SrcT"
    value {
      type: DT_INT64
    }
  }
  attr {
    key: "_output_shapes"
    value {
      list {
        shape {
        }
      }
    }
  }
}
node {
  name: "linear/linear/x_2_X_y_2/x_2_X_y_2_weights/SparseFillEmptyRows/range/start"
  op: "Const"
  attr {
    key: "_output_shapes"
    value {
      list {
        shape {
        }
      }
    }
  }
  attr {
    key: "dtype"
    value {
      type: DT_INT32
    }
  }
  attr {
    key: "value"
    value {
      tensor {
        dtype: DT_INT32
        tensor_shape {
        }
        int_val: 0
      }
    }
  }
}
node {
  name: "linear/linear/x_2_X_y_2/x_2_X_y_2_weights/SparseFillEmptyRows/range/delta"
  op: "Const"
  attr {
    key: "_output_shapes"
    value {
      list {
        shape {
        }
      }
    }
  }
  attr {
    key: "dtype"
    value {
      type: DT_INT32
    }
  }
  attr {
    key: "value"
    value {
      tensor {
        dtype: DT_INT32
        tensor_shape {
        }
        int_val: 1
      }
    }
  }
}
node {
  name: "linear/linear/x_2_X_y_2/x_2_X_y_2_weights/SparseFillEmptyRows/range"
  op: "Range"
  input: "linear/linear/x_2_X_y_2/x_2_X_y_2_weights/SparseFillEmptyRows/range/start"
  input: "linear/linear/x_2_X_y_2/x_2_X_y_2_weights/SparseFillEmptyRows/Cast"
  input: "linear/linear/x_2_X_y_2/x_2_X_y_2_weights/SparseFillEmptyRows/range/delta"
  attr {
    key: "Tidx"
    value {
      type: DT_INT32
    }
  }
  attr {
    key: "_output_shapes"
    value {
      list {
        shape {
          dim {
            size: -1
          }
        }
      }
    }
  }
}
node {
  name: "linear/linear/x_2_X_y_2/x_2_X_y_2_weights/SparseFillEmptyRows/Cast_1"
  op: "Cast"
  input: "linear/linear/x_2_X_y_2/x_2_X_y_2_weights/SparseFillEmptyRows/range"
  attr {
    key: "DstT"
    value {
      type: DT_INT64
    }
  }
  attr {
    key: "SrcT"
    value {
      type: DT_INT32
    }
  }
  attr {
    key: "_output_shapes"
    value {
      list {
        shape {
          dim {
            size: -1
          }
        }
      }
    }
  }
}
node {
  name: "linear/linear/x_2_X_y_2/x_2_X_y_2_weights/SparseFillEmptyRows/strided_slice_1/stack"
  op: "Const"
  attr {
    key: "_output_shapes"
    value {
      list {
        shape {
          dim {
            size: 2
          }
        }
      }
    }
  }
  attr {
    key: "dtype"
    value {
      type: DT_INT32
    }
  }
  attr {
    key: "value"
    value {
      tensor {
        dtype: DT_INT32
        tensor_shape {
          dim {
            size: 2
          }
        }
        tensor_content: "\000\000\000\000\000\000\000\000"
      }
    }
  }
}
node {
  name: "linear/linear/x_2_X_y_2/x_2_X_y_2_weights/SparseFillEmptyRows/strided_slice_1/stack_1"
  op: "Const"
  attr {
    key: "_output_shapes"
    value {
      list {
        shape {
          dim {
            size: 2
          }
        }
      }
    }
  }
  attr {
    key: "dtype"
    value {
      type: DT_INT32
    }
  }
  attr {
    key: "value"
    value {
      tensor {
        dtype: DT_INT32
        tensor_shape {
          dim {
            size: 2
          }
        }
        tensor_content: "\000\000\000\000\001\000\000\000"
      }
    }
  }
}
node {
  name: "linear/linear/x_2_X_y_2/x_2_X_y_2_weights/SparseFillEmptyRows/strided_slice_1/stack_2"
  op: "Const"
  attr {
    key: "_output_shapes"
    value {
      list {
        shape {
          dim {
            size: 2
          }
        }
      }
    }
  }
  attr {
    key: "dtype"
    value {
      type: DT_INT32
    }
  }
  attr {
    key: "value"
    value {
      tensor {
        dtype: DT_INT32
        tensor_shape {
          dim {
            size: 2
          }
        }
        tensor_content: "\001\000\000\000\001\000\000\000"
      }
    }
  }
}
node {
  name: "linear/linear/x_2_X_y_2/x_2_X_y_2_weights/SparseFillEmptyRows/strided_slice_1"
  op: "StridedSlice"
  input: "linear/linear/x_2_X_y_2/x_2_X_y_2_weights/Gather_1"
  input: "linear/linear/x_2_X_y_2/x_2_X_y_2_weights/SparseFillEmptyRows/strided_slice_1/stack"
  input: "linear/linear/x_2_X_y_2/x_2_X_y_2_weights/SparseFillEmptyRows/strided_slice_1/stack_1"
  input: "linear/linear/x_2_X_y_2/x_2_X_y_2_weights/SparseFillEmptyRows/strided_slice_1/stack_2"
  attr {
    key: "Index"
    value {
      type: DT_INT32
    }
  }
  attr {
    key: "T"
    value {
      type: DT_INT64
    }
  }
  attr {
    key: "_output_shapes"
    value {
      list {
        shape {
          dim {
            size: -1
          }
        }
      }
    }
  }
  attr {
    key: "begin_mask"
    value {
      i: 1
    }
  }
  attr {
    key: "ellipsis_mask"
    value {
      i: 0
    }
  }
  attr {
    key: "end_mask"
    value {
      i: 1
    }
  }
  attr {
    key: "new_axis_mask"
    value {
      i: 0
    }
  }
  attr {
    key: "shrink_axis_mask"
    value {
      i: 2
    }
  }
}
node {
  name: "linear/linear/x_2_X_y_2/x_2_X_y_2_weights/SparseFillEmptyRows/ListDiff"
  op: "ListDiff"
  input: "linear/linear/x_2_X_y_2/x_2_X_y_2_weights/SparseFillEmptyRows/Cast_1"
  input: "linear/linear/x_2_X_y_2/x_2_X_y_2_weights/SparseFillEmptyRows/strided_slice_1"
  attr {
    key: "T"
    value {
      type: DT_INT64
    }
  }
  attr {
    key: "_output_shapes"
    value {
      list {
        shape {
          dim {
            size: -1
          }
        }
        shape {
          dim {
            size: -1
          }
        }
      }
    }
  }
  attr {
    key: "out_idx"
    value {
      type: DT_INT32
    }
  }
}
node {
  name: "linear/linear/x_2_X_y_2/x_2_X_y_2_weights/SparseFillEmptyRows/strided_slice_2/stack"
  op: "Const"
  attr {
    key: "_output_shapes"
    value {
      list {
        shape {
          dim {
            size: 1
          }
        }
      }
    }
  }
  attr {
    key: "dtype"
    value {
      type: DT_INT32
    }
  }
  attr {
    key: "value"
    value {
      tensor {
        dtype: DT_INT32
        tensor_shape {
          dim {
            size: 1
          }
        }
        int_val: 0
      }
    }
  }
}
node {
  name: "linear/linear/x_2_X_y_2/x_2_X_y_2_weights/SparseFillEmptyRows/strided_slice_2/stack_1"
  op: "Const"
  attr {
    key: "_output_shapes"
    value {
      list {
        shape {
          dim {
            size: 1
          }
        }
      }
    }
  }
  attr {
    key: "dtype"
    value {
      type: DT_INT32
    }
  }
  attr {
    key: "value"
    value {
      tensor {
        dtype: DT_INT32
        tensor_shape {
          dim {
            size: 1
          }
        }
        int_val: 1
      }
    }
  }
}
node {
  name: "linear/linear/x_2_X_y_2/x_2_X_y_2_weights/SparseFillEmptyRows/strided_slice_2/stack_2"
  op: "Const"
  attr {
    key: "_output_shapes"
    value {
      list {
        shape {
          dim {
            size: 1
          }
        }
      }
    }
  }
  attr {
    key: "dtype"
    value {
      type: DT_INT32
    }
  }
  attr {
    key: "value"
    value {
      tensor {
        dtype: DT_INT32
        tensor_shape {
          dim {
            size: 1
          }
        }
        int_val: 1
      }
    }
  }
}
node {
  name: "linear/linear/x_2_X_y_2/x_2_X_y_2_weights/SparseFillEmptyRows/strided_slice_2"
  op: "StridedSlice"
  input: "linear/linear/x_2_X_y_2/x_2_X_y_2_weights/Identity"
  input: "linear/linear/x_2_X_y_2/x_2_X_y_2_weights/SparseFillEmptyRows/strided_slice_2/stack"
  input: "linear/linear/x_2_X_y_2/x_2_X_y_2_weights/SparseFillEmptyRows/strided_slice_2/stack_1"
  input: "linear/linear/x_2_X_y_2/x_2_X_y_2_weights/SparseFillEmptyRows/strided_slice_2/stack_2"
  attr {
    key: "Index"
    value {
      type: DT_INT32
    }
  }
  attr {
    key: "T"
    value {
      type: DT_INT64
    }
  }
  attr {
    key: "_output_shapes"
    value {
      list {
        shape {
        }
      }
    }
  }
  attr {
    key: "begin_mask"
    value {
      i: 0
    }
  }
  attr {
    key: "ellipsis_mask"
    value {
      i: 0
    }
  }
  attr {
    key: "end_mask"
    value {
      i: 0
    }
  }
  attr {
    key: "new_axis_mask"
    value {
      i: 0
    }
  }
  attr {
    key: "shrink_axis_mask"
    value {
      i: 1
    }
  }
}
node {
  name: "linear/linear/x_2_X_y_2/x_2_X_y_2_weights/SparseFillEmptyRows/ExpandDims/dim"
  op: "Const"
  attr {
    key: "_output_shapes"
    value {
      list {
        shape {
        }
      }
    }
  }
  attr {
    key: "dtype"
    value {
      type: DT_INT32
    }
  }
  attr {
    key: "value"
    value {
      tensor {
        dtype: DT_INT32
        tensor_shape {
        }
        int_val: -1
      }
    }
  }
}
node {
  name: "linear/linear/x_2_X_y_2/x_2_X_y_2_weights/SparseFillEmptyRows/ExpandDims"
  op: "ExpandDims"
  input: "linear/linear/x_2_X_y_2/x_2_X_y_2_weights/SparseFillEmptyRows/strided_slice_2"
  input: "linear/linear/x_2_X_y_2/x_2_X_y_2_weights/SparseFillEmptyRows/ExpandDims/dim"
  attr {
    key: "T"
    value {
      type: DT_INT64
    }
  }
  attr {
    key: "Tdim"
    value {
      type: DT_INT32
    }
  }
  attr {
    key: "_output_shapes"
    value {
      list {
        shape {
          dim {
            size: 1
          }
        }
      }
    }
  }
}
node {
  name: "linear/linear/x_2_X_y_2/x_2_X_y_2_weights/SparseFillEmptyRows/SparseToDense/sparse_values"
  op: "Const"
  attr {
    key: "_output_shapes"
    value {
      list {
        shape {
        }
      }
    }
  }
  attr {
    key: "dtype"
    value {
      type: DT_BOOL
    }
  }
  attr {
    key: "value"
    value {
      tensor {
        dtype: DT_BOOL
        tensor_shape {
        }
        bool_val: true
      }
    }
  }
}
node {
  name: "linear/linear/x_2_X_y_2/x_2_X_y_2_weights/SparseFillEmptyRows/SparseToDense/default_value"
  op: "Const"
  attr {
    key: "_output_shapes"
    value {
      list {
        shape {
        }
      }
    }
  }
  attr {
    key: "dtype"
    value {
      type: DT_BOOL
    }
  }
  attr {
    key: "value"
    value {
      tensor {
        dtype: DT_BOOL
        tensor_shape {
        }
        bool_val: false
      }
    }
  }
}
node {
  name: "linear/linear/x_2_X_y_2/x_2_X_y_2_weights/SparseFillEmptyRows/SparseToDense"
  op: "SparseToDense"
  input: "linear/linear/x_2_X_y_2/x_2_X_y_2_weights/SparseFillEmptyRows/ListDiff"
  input: "linear/linear/x_2_X_y_2/x_2_X_y_2_weights/SparseFillEmptyRows/ExpandDims"
  input: "linear/linear/x_2_X_y_2/x_2_X_y_2_weights/SparseFillEmptyRows/SparseToDense/sparse_values"
  input: "linear/linear/x_2_X_y_2/x_2_X_y_2_weights/SparseFillEmptyRows/SparseToDense/default_value"
  attr {
    key: "T"
    value {
      type: DT_BOOL
    }
  }
  attr {
    key: "Tindices"
    value {
      type: DT_INT64
    }
  }
  attr {
    key: "_output_shapes"
    value {
      list {
        shape {
          dim {
            size: -1
          }
        }
      }
    }
  }
  attr {
    key: "validate_indices"
    value {
      b: true
    }
  }
}
node {
  name: "linear/linear/x_2_X_y_2/x_2_X_y_2_weights/SparseFillEmptyRows/Reshape/shape"
  op: "Const"
  attr {
    key: "_output_shapes"
    value {
      list {
        shape {
          dim {
            size: 2
          }
        }
      }
    }
  }
  attr {
    key: "dtype"
    value {
      type: DT_INT32
    }
  }
  attr {
    key: "value"
    value {
      tensor {
        dtype: DT_INT32
        tensor_shape {
          dim {
            size: 2
          }
        }
        tensor_content: "\377\377\377\377\001\000\000\000"
      }
    }
  }
}
node {
  name: "linear/linear/x_2_X_y_2/x_2_X_y_2_weights/SparseFillEmptyRows/Reshape"
  op: "Reshape"
  input: "linear/linear/x_2_X_y_2/x_2_X_y_2_weights/SparseFillEmptyRows/ListDiff"
  input: "linear/linear/x_2_X_y_2/x_2_X_y_2_weights/SparseFillEmptyRows/Reshape/shape"
  attr {
    key: "T"
    value {
      type: DT_INT64
    }
  }
  attr {
    key: "Tshape"
    value {
      type: DT_INT32
    }
  }
  attr {
    key: "_output_shapes"
    value {
      list {
        shape {
          dim {
            size: -1
          }
          dim {
            size: 1
          }
        }
      }
    }
  }
}
node {
  name: "linear/linear/x_2_X_y_2/x_2_X_y_2_weights/SparseFillEmptyRows/zeros_like"
  op: "ZerosLike"
  input: "linear/linear/x_2_X_y_2/x_2_X_y_2_weights/SparseFillEmptyRows/Reshape"
  attr {
    key: "T"
    value {
      type: DT_INT64
    }
  }
  attr {
    key: "_output_shapes"
    value {
      list {
        shape {
          dim {
            size: -1
          }
          dim {
            size: 1
          }
        }
      }
    }
  }
}
node {
  name: "linear/linear/x_2_X_y_2/x_2_X_y_2_weights/SparseFillEmptyRows/concat/axis"
  op: "Const"
  attr {
    key: "_output_shapes"
    value {
      list {
        shape {
        }
      }
    }
  }
  attr {
    key: "dtype"
    value {
      type: DT_INT32
    }
  }
  attr {
    key: "value"
    value {
      tensor {
        dtype: DT_INT32
        tensor_shape {
        }
        int_val: 1
      }
    }
  }
}
node {
  name: "linear/linear/x_2_X_y_2/x_2_X_y_2_weights/SparseFillEmptyRows/concat"
  op: "ConcatV2"
  input: "linear/linear/x_2_X_y_2/x_2_X_y_2_weights/SparseFillEmptyRows/Reshape"
  input: "linear/linear/x_2_X_y_2/x_2_X_y_2_weights/SparseFillEmptyRows/zeros_like"
  input: "linear/linear/x_2_X_y_2/x_2_X_y_2_weights/SparseFillEmptyRows/concat/axis"
  attr {
    key: "N"
    value {
      i: 2
    }
  }
  attr {
    key: "T"
    value {
      type: DT_INT64
    }
  }
  attr {
    key: "Tidx"
    value {
      type: DT_INT32
    }
  }
  attr {
    key: "_output_shapes"
    value {
      list {
        shape {
          dim {
            size: -1
          }
          dim {
            size: 2
          }
        }
      }
    }
  }
}
node {
  name: "linear/linear/x_2_X_y_2/x_2_X_y_2_weights/SparseFillEmptyRows/Shape"
  op: "Shape"
  input: "linear/linear/x_2_X_y_2/x_2_X_y_2_weights/SparseFillEmptyRows/ListDiff"
  attr {
    key: "T"
    value {
      type: DT_INT64
    }
  }
  attr {
    key: "_output_shapes"
    value {
      list {
        shape {
          dim {
            size: 1
          }
        }
      }
    }
  }
  attr {
    key: "out_type"
    value {
      type: DT_INT32
    }
  }
}
node {
  name: "linear/linear/x_2_X_y_2/x_2_X_y_2_weights/SparseFillEmptyRows/Fill"
  op: "Fill"
  input: "linear/linear/x_2_X_y_2/x_2_X_y_2_weights/SparseFillEmptyRows/Shape"
  input: "linear/linear/x_2_X_y_2/x_2_X_y_2_weights/SparseFillEmptyRows/Const"
  attr {
    key: "T"
    value {
      type: DT_INT64
    }
  }
  attr {
    key: "_output_shapes"
    value {
      list {
        shape {
          dim {
            size: -1
          }
        }
      }
    }
  }
}
node {
  name: "linear/linear/x_2_X_y_2/x_2_X_y_2_weights/SparseFillEmptyRows/concat_1/axis"
  op: "Const"
  attr {
    key: "_output_shapes"
    value {
      list {
        shape {
        }
      }
    }
  }
  attr {
    key: "dtype"
    value {
      type: DT_INT32
    }
  }
  attr {
    key: "value"
    value {
      tensor {
        dtype: DT_INT32
        tensor_shape {
        }
        int_val: 0
      }
    }
  }
}
node {
  name: "linear/linear/x_2_X_y_2/x_2_X_y_2_weights/SparseFillEmptyRows/concat_1"
  op: "ConcatV2"
  input: "linear/linear/x_2_X_y_2/x_2_X_y_2_weights/Gather_1"
  input: "linear/linear/x_2_X_y_2/x_2_X_y_2_weights/SparseFillEmptyRows/concat"
  input: "linear/linear/x_2_X_y_2/x_2_X_y_2_weights/SparseFillEmptyRows/concat_1/axis"
  attr {
    key: "N"
    value {
      i: 2
    }
  }
  attr {
    key: "T"
    value {
      type: DT_INT64
    }
  }
  attr {
    key: "Tidx"
    value {
      type: DT_INT32
    }
  }
  attr {
    key: "_output_shapes"
    value {
      list {
        shape {
          dim {
            size: -1
          }
          dim {
            size: 2
          }
        }
      }
    }
  }
}
node {
  name: "linear/linear/x_2_X_y_2/x_2_X_y_2_weights/SparseFillEmptyRows/concat_2/axis"
  op: "Const"
  attr {
    key: "_output_shapes"
    value {
      list {
        shape {
        }
      }
    }
  }
  attr {
    key: "dtype"
    value {
      type: DT_INT32
    }
  }
  attr {
    key: "value"
    value {
      tensor {
        dtype: DT_INT32
        tensor_shape {
        }
        int_val: 0
      }
    }
  }
}
node {
  name: "linear/linear/x_2_X_y_2/x_2_X_y_2_weights/SparseFillEmptyRows/concat_2"
  op: "ConcatV2"
  input: "linear/linear/x_2_X_y_2/x_2_X_y_2_weights/Gather_2"
  input: "linear/linear/x_2_X_y_2/x_2_X_y_2_weights/SparseFillEmptyRows/Fill"
  input: "linear/linear/x_2_X_y_2/x_2_X_y_2_weights/SparseFillEmptyRows/concat_2/axis"
  attr {
    key: "N"
    value {
      i: 2
    }
  }
  attr {
    key: "T"
    value {
      type: DT_INT64
    }
  }
  attr {
    key: "Tidx"
    value {
      type: DT_INT32
    }
  }
  attr {
    key: "_output_shapes"
    value {
      list {
        shape {
          dim {
            size: -1
          }
        }
      }
    }
  }
}
node {
  name: "linear/linear/x_2_X_y_2/x_2_X_y_2_weights/SparseFillEmptyRows/SparseReorder"
  op: "SparseReorder"
  input: "linear/linear/x_2_X_y_2/x_2_X_y_2_weights/SparseFillEmptyRows/concat_1"
  input: "linear/linear/x_2_X_y_2/x_2_X_y_2_weights/SparseFillEmptyRows/concat_2"
  input: "linear/linear/x_2_X_y_2/x_2_X_y_2_weights/Identity"
  attr {
    key: "T"
    value {
      type: DT_INT64
    }
  }
  attr {
    key: "_output_shapes"
    value {
      list {
        shape {
          dim {
            size: -1
          }
          dim {
            size: 2
          }
        }
        shape {
          dim {
            size: -1
          }
        }
      }
    }
  }
}
node {
  name: "linear/linear/x_2_X_y_2/x_2_X_y_2_weights/SparseFillEmptyRows/Identity"
  op: "Identity"
  input: "linear/linear/x_2_X_y_2/x_2_X_y_2_weights/Identity"
  attr {
    key: "T"
    value {
      type: DT_INT64
    }
  }
  attr {
    key: "_output_shapes"
    value {
      list {
        shape {
          dim {
            size: 2
          }
        }
      }
    }
  }
}
node {
  name: "linear/linear/x_2_X_y_2/x_2_X_y_2_weights/embedding_lookup_sparse/strided_slice/stack"
  op: "Const"
  attr {
    key: "_output_shapes"
    value {
      list {
        shape {
          dim {
            size: 2
          }
        }
      }
    }
  }
  attr {
    key: "dtype"
    value {
      type: DT_INT32
    }
  }
  attr {
    key: "value"
    value {
      tensor {
        dtype: DT_INT32
        tensor_shape {
          dim {
            size: 2
          }
        }
        tensor_content: "\000\000\000\000\000\000\000\000"
      }
    }
  }
}
node {
  name: "linear/linear/x_2_X_y_2/x_2_X_y_2_weights/embedding_lookup_sparse/strided_slice/stack_1"
  op: "Const"
  attr {
    key: "_output_shapes"
    value {
      list {
        shape {
          dim {
            size: 2
          }
        }
      }
    }
  }
  attr {
    key: "dtype"
    value {
      type: DT_INT32
    }
  }
  attr {
    key: "value"
    value {
      tensor {
        dtype: DT_INT32
        tensor_shape {
          dim {
            size: 2
          }
        }
        tensor_content: "\000\000\000\000\001\000\000\000"
      }
    }
  }
}
node {
  name: "linear/linear/x_2_X_y_2/x_2_X_y_2_weights/embedding_lookup_sparse/strided_slice/stack_2"
  op: "Const"
  attr {
    key: "_output_shapes"
    value {
      list {
        shape {
          dim {
            size: 2
          }
        }
      }
    }
  }
  attr {
    key: "dtype"
    value {
      type: DT_INT32
    }
  }
  attr {
    key: "value"
    value {
      tensor {
        dtype: DT_INT32
        tensor_shape {
          dim {
            size: 2
          }
        }
        tensor_content: "\001\000\000\000\001\000\000\000"
      }
    }
  }
}
node {
  name: "linear/linear/x_2_X_y_2/x_2_X_y_2_weights/embedding_lookup_sparse/strided_slice"
  op: "StridedSlice"
  input: "linear/linear/x_2_X_y_2/x_2_X_y_2_weights/SparseFillEmptyRows/SparseReorder"
  input: "linear/linear/x_2_X_y_2/x_2_X_y_2_weights/embedding_lookup_sparse/strided_slice/stack"
  input: "linear/linear/x_2_X_y_2/x_2_X_y_2_weights/embedding_lookup_sparse/strided_slice/stack_1"
  input: "linear/linear/x_2_X_y_2/x_2_X_y_2_weights/embedding_lookup_sparse/strided_slice/stack_2"
  attr {
    key: "Index"
    value {
      type: DT_INT32
    }
  }
  attr {
    key: "T"
    value {
      type: DT_INT64
    }
  }
  attr {
    key: "_output_shapes"
    value {
      list {
        shape {
          dim {
            size: -1
          }
        }
      }
    }
  }
  attr {
    key: "begin_mask"
    value {
      i: 1
    }
  }
  attr {
    key: "ellipsis_mask"
    value {
      i: 0
    }
  }
  attr {
    key: "end_mask"
    value {
      i: 1
    }
  }
  attr {
    key: "new_axis_mask"
    value {
      i: 0
    }
  }
  attr {
    key: "shrink_axis_mask"
    value {
      i: 2
    }
  }
}
node {
  name: "linear/linear/x_2_X_y_2/x_2_X_y_2_weights/embedding_lookup_sparse/Cast"
  op: "Cast"
  input: "linear/linear/x_2_X_y_2/x_2_X_y_2_weights/embedding_lookup_sparse/strided_slice"
  attr {
    key: "DstT"
    value {
      type: DT_INT32
    }
  }
  attr {
    key: "SrcT"
    value {
      type: DT_INT64
    }
  }
  attr {
    key: "_output_shapes"
    value {
      list {
        shape {
          dim {
            size: -1
          }
        }
      }
    }
  }
}
node {
  name: "linear/linear/x_2_X_y_2/x_2_X_y_2_weights/embedding_lookup_sparse/Unique"
  op: "Unique"
  input: "linear/linear/x_2_X_y_2/x_2_X_y_2_weights/SparseFillEmptyRows/SparseReorder:1"
  attr {
    key: "T"
    value {
      type: DT_INT64
    }
  }
  attr {
    key: "_output_shapes"
    value {
      list {
        shape {
          dim {
            size: -1
          }
        }
        shape {
          dim {
            size: -1
          }
        }
      }
    }
  }
  attr {
    key: "out_idx"
    value {
      type: DT_INT32
    }
  }
}
node {
  name: "linear/linear/x_2_X_y_2/x_2_X_y_2_weights/embedding_lookup_sparse/embedding_lookup"
  op: "Gather"
  input: "linear/x_2_X_y_2/weights/part_0/read"
  input: "linear/linear/x_2_X_y_2/x_2_X_y_2_weights/embedding_lookup_sparse/Unique"
  attr {
    key: "Tindices"
    value {
      type: DT_INT64
    }
  }
  attr {
    key: "Tparams"
    value {
      type: DT_FLOAT
    }
  }
  attr {
    key: "_class"
    value {
      list {
        s: "loc:@linear/x_2_X_y_2/weights/part_0"
      }
    }
  }
  attr {
    key: "_output_shapes"
    value {
      list {
        shape {
          dim {
            size: -1
          }
          dim {
            size: 1
          }
        }
      }
    }
  }
  attr {
    key: "validate_indices"
    value {
      b: true
    }
  }
}
node {
  name: "linear/linear/x_2_X_y_2/x_2_X_y_2_weights/embedding_lookup_sparse"
  op: "SparseSegmentSum"
  input: "linear/linear/x_2_X_y_2/x_2_X_y_2_weights/embedding_lookup_sparse/embedding_lookup"
  input: "linear/linear/x_2_X_y_2/x_2_X_y_2_weights/embedding_lookup_sparse/Unique:1"
  input: "linear/linear/x_2_X_y_2/x_2_X_y_2_weights/embedding_lookup_sparse/Cast"
  attr {
    key: "T"
    value {
      type: DT_FLOAT
    }
  }
  attr {
    key: "Tidx"
    value {
      type: DT_INT32
    }
  }
  attr {
    key: "_output_shapes"
    value {
      list {
        shape {
          dim {
            size: -1
          }
          dim {
            size: 1
          }
        }
      }
    }
  }
}
node {
  name: "linear/linear/x_2_X_y_2/x_2_X_y_2_weights/Reshape_1/shape"
  op: "Const"
  attr {
    key: "_output_shapes"
    value {
      list {
        shape {
          dim {
            size: 2
          }
        }
      }
    }
  }
  attr {
    key: "dtype"
    value {
      type: DT_INT32
    }
  }
  attr {
    key: "value"
    value {
      tensor {
        dtype: DT_INT32
        tensor_shape {
          dim {
            size: 2
          }
        }
        tensor_content: "\377\377\377\377\001\000\000\000"
      }
    }
  }
}
node {
  name: "linear/linear/x_2_X_y_2/x_2_X_y_2_weights/Reshape_1"
  op: "Reshape"
  input: "linear/linear/x_2_X_y_2/x_2_X_y_2_weights/SparseFillEmptyRows/SparseToDense"
  input: "linear/linear/x_2_X_y_2/x_2_X_y_2_weights/Reshape_1/shape"
  attr {
    key: "T"
    value {
      type: DT_BOOL
    }
  }
  attr {
    key: "Tshape"
    value {
      type: DT_INT32
    }
  }
  attr {
    key: "_output_shapes"
    value {
      list {
        shape {
          dim {
            size: -1
          }
          dim {
            size: 1
          }
        }
      }
    }
  }
}
node {
  name: "linear/linear/x_2_X_y_2/x_2_X_y_2_weights/Shape"
  op: "Shape"
  input: "linear/linear/x_2_X_y_2/x_2_X_y_2_weights/embedding_lookup_sparse"
  attr {
    key: "T"
    value {
      type: DT_FLOAT
    }
  }
  attr {
    key: "_output_shapes"
    value {
      list {
        shape {
          dim {
            size: 2
          }
        }
      }
    }
  }
  attr {
    key: "out_type"
    value {
      type: DT_INT32
    }
  }
}
node {
  name: "linear/linear/x_2_X_y_2/x_2_X_y_2_weights/strided_slice/stack"
  op: "Const"
  attr {
    key: "_output_shapes"
    value {
      list {
        shape {
          dim {
            size: 1
          }
        }
      }
    }
  }
  attr {
    key: "dtype"
    value {
      type: DT_INT32
    }
  }
  attr {
    key: "value"
    value {
      tensor {
        dtype: DT_INT32
        tensor_shape {
          dim {
            size: 1
          }
        }
        int_val: 1
      }
    }
  }
}
node {
  name: "linear/linear/x_2_X_y_2/x_2_X_y_2_weights/strided_slice/stack_1"
  op: "Const"
  attr {
    key: "_output_shapes"
    value {
      list {
        shape {
          dim {
            size: 1
          }
        }
      }
    }
  }
  attr {
    key: "dtype"
    value {
      type: DT_INT32
    }
  }
  attr {
    key: "value"
    value {
      tensor {
        dtype: DT_INT32
        tensor_shape {
          dim {
            size: 1
          }
        }
        int_val: 2
      }
    }
  }
}
node {
  name: "linear/linear/x_2_X_y_2/x_2_X_y_2_weights/strided_slice/stack_2"
  op: "Const"
  attr {
    key: "_output_shapes"
    value {
      list {
        shape {
          dim {
            size: 1
          }
        }
      }
    }
  }
  attr {
    key: "dtype"
    value {
      type: DT_INT32
    }
  }
  attr {
    key: "value"
    value {
      tensor {
        dtype: DT_INT32
        tensor_shape {
          dim {
            size: 1
          }
        }
        int_val: 1
      }
    }
  }
}
node {
  name: "linear/linear/x_2_X_y_2/x_2_X_y_2_weights/strided_slice"
  op: "StridedSlice"
  input: "linear/linear/x_2_X_y_2/x_2_X_y_2_weights/Shape"
  input: "linear/linear/x_2_X_y_2/x_2_X_y_2_weights/strided_slice/stack"
  input: "linear/linear/x_2_X_y_2/x_2_X_y_2_weights/strided_slice/stack_1"
  input: "linear/linear/x_2_X_y_2/x_2_X_y_2_weights/strided_slice/stack_2"
  attr {
    key: "Index"
    value {
      type: DT_INT32
    }
  }
  attr {
    key: "T"
    value {
      type: DT_INT32
    }
  }
  attr {
    key: "_output_shapes"
    value {
      list {
        shape {
        }
      }
    }
  }
  attr {
    key: "begin_mask"
    value {
      i: 0
    }
  }
  attr {
    key: "ellipsis_mask"
    value {
      i: 0
    }
  }
  attr {
    key: "end_mask"
    value {
      i: 0
    }
  }
  attr {
    key: "new_axis_mask"
    value {
      i: 0
    }
  }
  attr {
    key: "shrink_axis_mask"
    value {
      i: 1
    }
  }
}
node {
  name: "linear/linear/x_2_X_y_2/x_2_X_y_2_weights/stack/0"
  op: "Const"
  attr {
    key: "_output_shapes"
    value {
      list {
        shape {
        }
      }
    }
  }
  attr {
    key: "dtype"
    value {
      type: DT_INT32
    }
  }
  attr {
    key: "value"
    value {
      tensor {
        dtype: DT_INT32
        tensor_shape {
        }
        int_val: 1
      }
    }
  }
}
node {
  name: "linear/linear/x_2_X_y_2/x_2_X_y_2_weights/stack"
  op: "Pack"
  input: "linear/linear/x_2_X_y_2/x_2_X_y_2_weights/stack/0"
  input: "linear/linear/x_2_X_y_2/x_2_X_y_2_weights/strided_slice"
  attr {
    key: "N"
    value {
      i: 2
    }
  }
  attr {
    key: "T"
    value {
      type: DT_INT32
    }
  }
  attr {
    key: "_output_shapes"
    value {
      list {
        shape {
          dim {
            size: 2
          }
        }
      }
    }
  }
  attr {
    key: "axis"
    value {
      i: 0
    }
  }
}
node {
  name: "linear/linear/x_2_X_y_2/x_2_X_y_2_weights/Tile"
  op: "Tile"
  input: "linear/linear/x_2_X_y_2/x_2_X_y_2_weights/Reshape_1"
  input: "linear/linear/x_2_X_y_2/x_2_X_y_2_weights/stack"
  attr {
    key: "T"
    value {
      type: DT_BOOL
    }
  }
  attr {
    key: "Tmultiples"
    value {
      type: DT_INT32
    }
  }
  attr {
    key: "_output_shapes"
    value {
      list {
        shape {
          dim {
            size: -1
          }
          dim {
            size: -1
          }
        }
      }
    }
  }
}
node {
  name: "linear/linear/x_2_X_y_2/x_2_X_y_2_weights/zeros_like"
  op: "ZerosLike"
  input: "linear/linear/x_2_X_y_2/x_2_X_y_2_weights/embedding_lookup_sparse"
  attr {
    key: "T"
    value {
      type: DT_FLOAT
    }
  }
  attr {
    key: "_output_shapes"
    value {
      list {
        shape {
          dim {
            size: -1
          }
          dim {
            size: 1
          }
        }
      }
    }
  }
}
node {
  name: "linear/linear/x_2_X_y_2/x_2_X_y_2_weights"
  op: "Select"
  input: "linear/linear/x_2_X_y_2/x_2_X_y_2_weights/Tile"
  input: "linear/linear/x_2_X_y_2/x_2_X_y_2_weights/zeros_like"
  input: "linear/linear/x_2_X_y_2/x_2_X_y_2_weights/embedding_lookup_sparse"
  attr {
    key: "T"
    value {
      type: DT_FLOAT
    }
  }
  attr {
    key: "_output_shapes"
    value {
      list {
        shape {
          dim {
            size: -1
          }
          dim {
            size: 1
          }
        }
      }
    }
  }
}
node {
  name: "linear/linear/x_2_X_y_2/x_2_X_y_2_weights/Cast_1"
  op: "Cast"
  input: "linear/linear/cross_1:2"
  attr {
    key: "DstT"
    value {
      type: DT_INT32
    }
  }
  attr {
    key: "SrcT"
    value {
      type: DT_INT64
    }
  }
  attr {
    key: "_output_shapes"
    value {
      list {
        shape {
          dim {
            size: 2
          }
        }
      }
    }
  }
}
node {
  name: "linear/linear/x_2_X_y_2/x_2_X_y_2_weights/Slice_1/begin"
  op: "Const"
  attr {
    key: "_output_shapes"
    value {
      list {
        shape {
          dim {
            size: 1
          }
        }
      }
    }
  }
  attr {
    key: "dtype"
    value {
      type: DT_INT32
    }
  }
  attr {
    key: "value"
    value {
      tensor {
        dtype: DT_INT32
        tensor_shape {
          dim {
            size: 1
          }
        }
        int_val: 0
      }
    }
  }
}
node {
  name: "linear/linear/x_2_X_y_2/x_2_X_y_2_weights/Slice_1/size"
  op: "Const"
  attr {
    key: "_output_shapes"
    value {
      list {
        shape {
          dim {
            size: 1
          }
        }
      }
    }
  }
  attr {
    key: "dtype"
    value {
      type: DT_INT32
    }
  }
  attr {
    key: "value"
    value {
      tensor {
        dtype: DT_INT32
        tensor_shape {
          dim {
            size: 1
          }
        }
        int_val: 1
      }
    }
  }
}
node {
  name: "linear/linear/x_2_X_y_2/x_2_X_y_2_weights/Slice_1"
  op: "Slice"
  input: "linear/linear/x_2_X_y_2/x_2_X_y_2_weights/Cast_1"
  input: "linear/linear/x_2_X_y_2/x_2_X_y_2_weights/Slice_1/begin"
  input: "linear/linear/x_2_X_y_2/x_2_X_y_2_weights/Slice_1/size"
  attr {
    key: "Index"
    value {
      type: DT_INT32
    }
  }
  attr {
    key: "T"
    value {
      type: DT_INT32
    }
  }
  attr {
    key: "_output_shapes"
    value {
      list {
        shape {
          dim {
            size: 1
          }
        }
      }
    }
  }
}
node {
  name: "linear/linear/x_2_X_y_2/x_2_X_y_2_weights/Shape_1"
  op: "Shape"
  input: "linear/linear/x_2_X_y_2/x_2_X_y_2_weights"
  attr {
    key: "T"
    value {
      type: DT_FLOAT
    }
  }
  attr {
    key: "_output_shapes"
    value {
      list {
        shape {
          dim {
            size: 2
          }
        }
      }
    }
  }
  attr {
    key: "out_type"
    value {
      type: DT_INT32
    }
  }
}
node {
  name: "linear/linear/x_2_X_y_2/x_2_X_y_2_weights/Slice_2/begin"
  op: "Const"
  attr {
    key: "_output_shapes"
    value {
      list {
        shape {
          dim {
            size: 1
          }
        }
      }
    }
  }
  attr {
    key: "dtype"
    value {
      type: DT_INT32
    }
  }
  attr {
    key: "value"
    value {
      tensor {
        dtype: DT_INT32
        tensor_shape {
          dim {
            size: 1
          }
        }
        int_val: 1
      }
    }
  }
}
node {
  name: "linear/linear/x_2_X_y_2/x_2_X_y_2_weights/Slice_2/size"
  op: "Const"
  attr {
    key: "_output_shapes"
    value {
      list {
        shape {
          dim {
            size: 1
          }
        }
      }
    }
  }
  attr {
    key: "dtype"
    value {
      type: DT_INT32
    }
  }
  attr {
    key: "value"
    value {
      tensor {
        dtype: DT_INT32
        tensor_shape {
          dim {
            size: 1
          }
        }
        int_val: -1
      }
    }
  }
}
node {
  name: "linear/linear/x_2_X_y_2/x_2_X_y_2_weights/Slice_2"
  op: "Slice"
  input: "linear/linear/x_2_X_y_2/x_2_X_y_2_weights/Shape_1"
  input: "linear/linear/x_2_X_y_2/x_2_X_y_2_weights/Slice_2/begin"
  input: "linear/linear/x_2_X_y_2/x_2_X_y_2_weights/Slice_2/size"
  attr {
    key: "Index"
    value {
      type: DT_INT32
    }
  }
  attr {
    key: "T"
    value {
      type: DT_INT32
    }
  }
  attr {
    key: "_output_shapes"
    value {
      list {
        shape {
          dim {
            size: 1
          }
        }
      }
    }
  }
}
node {
  name: "linear/linear/x_2_X_y_2/x_2_X_y_2_weights/concat/axis"
  op: "Const"
  attr {
    key: "_output_shapes"
    value {
      list {
        shape {
        }
      }
    }
  }
  attr {
    key: "dtype"
    value {
      type: DT_INT32
    }
  }
  attr {
    key: "value"
    value {
      tensor {
        dtype: DT_INT32
        tensor_shape {
        }
        int_val: 0
      }
    }
  }
}
node {
  name: "linear/linear/x_2_X_y_2/x_2_X_y_2_weights/concat"
  op: "ConcatV2"
  input: "linear/linear/x_2_X_y_2/x_2_X_y_2_weights/Slice_1"
  input: "linear/linear/x_2_X_y_2/x_2_X_y_2_weights/Slice_2"
  input: "linear/linear/x_2_X_y_2/x_2_X_y_2_weights/concat/axis"
  attr {
    key: "N"
    value {
      i: 2
    }
  }
  attr {
    key: "T"
    value {
      type: DT_INT32
    }
  }
  attr {
    key: "Tidx"
    value {
      type: DT_INT32
    }
  }
  attr {
    key: "_output_shapes"
    value {
      list {
        shape {
          dim {
            size: 2
          }
        }
      }
    }
  }
}
node {
  name: "linear/linear/x_2_X_y_2/x_2_X_y_2_weights/Reshape_2"
  op: "Reshape"
  input: "linear/linear/x_2_X_y_2/x_2_X_y_2_weights"
  input: "linear/linear/x_2_X_y_2/x_2_X_y_2_weights/concat"
  attr {
    key: "T"
    value {
      type: DT_FLOAT
    }
  }
  attr {
    key: "Tshape"
    value {
      type: DT_INT32
    }
  }
  attr {
    key: "_output_shapes"
    value {
      list {
        shape {
          dim {
            size: -1
          }
          dim {
            size: 1
          }
        }
      }
    }
  }
}
node {
  name: "linear/linear/Reshape_1/shape"
  op: "Const"
  attr {
    key: "_output_shapes"
    value {
      list {
        shape {
          dim {
            size: 2
          }
        }
      }
    }
  }
  attr {
    key: "dtype"
    value {
      type: DT_INT32
    }
  }
  attr {
    key: "value"
    value {
      tensor {
        dtype: DT_INT32
        tensor_shape {
          dim {
            size: 2
          }
        }
        tensor_content: "\377\377\377\377\001\000\000\000"
      }
    }
  }
}
node {
  name: "linear/linear/Reshape_1"
  op: "Reshape"
  input: "linear/linear/x_2_X_y_2/x_2_X_y_2_weights/Reshape_2"
  input: "linear/linear/Reshape_1/shape"
  attr {
    key: "T"
    value {
      type: DT_FLOAT
    }
  }
  attr {
    key: "Tshape"
    value {
      type: DT_INT32
    }
  }
  attr {
    key: "_output_shapes"
    value {
      list {
        shape {
          dim {
            size: -1
          }
          dim {
            size: 1
          }
        }
      }
    }
  }
}
node {
  name: "linear/linear/ToInt64_4"
  op: "Cast"
  input: "SparseTensor_5/values"
  attr {
    key: "DstT"
    value {
      type: DT_INT64
    }
  }
  attr {
    key: "SrcT"
    value {
      type: DT_DOUBLE
    }
  }
  attr {
    key: "_output_shapes"
    value {
      list {
        shape {
          dim {
            size: 196
          }
        }
      }
    }
  }
}
node {
  name: "linear/linear/ToInt64_5"
  op: "Cast"
  input: "SparseTensor_6/values"
  attr {
    key: "DstT"
    value {
      type: DT_INT64
    }
  }
  attr {
    key: "SrcT"
    value {
      type: DT_DOUBLE
    }
  }
  attr {
    key: "_output_shapes"
    value {
      list {
        shape {
          dim {
            size: 196
          }
        }
      }
    }
  }
}
node {
  name: "linear/linear/cross_2"
  op: "SparseFeatureCross"
  input: "SparseTensor_5/indices"
  input: "SparseTensor_6/indices"
  input: "linear/linear/ToInt64_4"
  input: "linear/linear/ToInt64_5"
  input: "SparseTensor_5/dense_shape"
  input: "SparseTensor_6/dense_shape"
  attr {
    key: "N"
    value {
      i: 2
    }
  }
  attr {
    key: "_output_shapes"
    value {
      list {
        shape {
          dim {
            size: -1
          }
          dim {
            size: 2
          }
        }
        shape {
          dim {
            size: -1
          }
        }
        shape {
          dim {
            size: 2
          }
        }
      }
    }
  }
  attr {
    key: "dense_types"
    value {
      list {
      }
    }
  }
  attr {
    key: "hashed_output"
    value {
      b: true
    }
  }
  attr {
    key: "internal_type"
    value {
      type: DT_INT64
    }
  }
  attr {
    key: "num_buckets"
    value {
      i: 1000000
    }
  }
  attr {
    key: "out_type"
    value {
      type: DT_INT64
    }
  }
  attr {
    key: "sparse_types"
    value {
      list {
        type: DT_INT64
        type: DT_INT64
      }
    }
  }
}
node {
  name: "linear/x_3_X_y_3/weights/part_0/Initializer/zeros"
  op: "Const"
  attr {
    key: "_class"
    value {
      list {
        s: "loc:@linear/x_3_X_y_3/weights/part_0"
      }
    }
  }
  attr {
    key: "_output_shapes"
    value {
      list {
        shape {
          dim {
            size: 1000000
          }
          dim {
            size: 1
          }
        }
      }
    }
  }
  attr {
    key: "dtype"
    value {
      type: DT_FLOAT
    }
  }
  attr {
    key: "value"
    value {
      tensor {
        dtype: DT_FLOAT
        tensor_shape {
          dim {
            size: 1000000
          }
          dim {
            size: 1
          }
        }
        float_val: 0.0
      }
    }
  }
}
node {
  name: "linear/x_3_X_y_3/weights/part_0"
  op: "VariableV2"
  attr {
    key: "_class"
    value {
      list {
        s: "loc:@linear/x_3_X_y_3/weights/part_0"
      }
    }
  }
  attr {
    key: "_output_shapes"
    value {
      list {
        shape {
          dim {
            size: 1000000
          }
          dim {
            size: 1
          }
        }
      }
    }
  }
  attr {
    key: "container"
    value {
      s: ""
    }
  }
  attr {
    key: "dtype"
    value {
      type: DT_FLOAT
    }
  }
  attr {
    key: "shape"
    value {
      shape {
        dim {
          size: 1000000
        }
        dim {
          size: 1
        }
      }
    }
  }
  attr {
    key: "shared_name"
    value {
      s: ""
    }
  }
}
node {
  name: "linear/x_3_X_y_3/weights/part_0/Assign"
  op: "Assign"
  input: "linear/x_3_X_y_3/weights/part_0"
  input: "linear/x_3_X_y_3/weights/part_0/Initializer/zeros"
  attr {
    key: "T"
    value {
      type: DT_FLOAT
    }
  }
  attr {
    key: "_class"
    value {
      list {
        s: "loc:@linear/x_3_X_y_3/weights/part_0"
      }
    }
  }
  attr {
    key: "_output_shapes"
    value {
      list {
        shape {
          dim {
            size: 1000000
          }
          dim {
            size: 1
          }
        }
      }
    }
  }
  attr {
    key: "use_locking"
    value {
      b: true
    }
  }
  attr {
    key: "validate_shape"
    value {
      b: true
    }
  }
}
node {
  name: "linear/x_3_X_y_3/weights/part_0/read"
  op: "Identity"
  input: "linear/x_3_X_y_3/weights/part_0"
  attr {
    key: "T"
    value {
      type: DT_FLOAT
    }
  }
  attr {
    key: "_class"
    value {
      list {
        s: "loc:@linear/x_3_X_y_3/weights/part_0"
      }
    }
  }
  attr {
    key: "_output_shapes"
    value {
      list {
        shape {
          dim {
            size: 1000000
          }
          dim {
            size: 1
          }
        }
      }
    }
  }
}
node {
  name: "linear/linear/x_3_X_y_3/x_3_X_y_3_weights/Slice/begin"
  op: "Const"
  attr {
    key: "_output_shapes"
    value {
      list {
        shape {
          dim {
            size: 1
          }
        }
      }
    }
  }
  attr {
    key: "dtype"
    value {
      type: DT_INT32
    }
  }
  attr {
    key: "value"
    value {
      tensor {
        dtype: DT_INT32
        tensor_shape {
          dim {
            size: 1
          }
        }
        int_val: 0
      }
    }
  }
}
node {
  name: "linear/linear/x_3_X_y_3/x_3_X_y_3_weights/Slice/size"
  op: "Const"
  attr {
    key: "_output_shapes"
    value {
      list {
        shape {
          dim {
            size: 1
          }
        }
      }
    }
  }
  attr {
    key: "dtype"
    value {
      type: DT_INT32
    }
  }
  attr {
    key: "value"
    value {
      tensor {
        dtype: DT_INT32
        tensor_shape {
          dim {
            size: 1
          }
        }
        int_val: 1
      }
    }
  }
}
node {
  name: "linear/linear/x_3_X_y_3/x_3_X_y_3_weights/Slice"
  op: "Slice"
  input: "linear/linear/cross_2:2"
  input: "linear/linear/x_3_X_y_3/x_3_X_y_3_weights/Slice/begin"
  input: "linear/linear/x_3_X_y_3/x_3_X_y_3_weights/Slice/size"
  attr {
    key: "Index"
    value {
      type: DT_INT32
    }
  }
  attr {
    key: "T"
    value {
      type: DT_INT64
    }
  }
  attr {
    key: "_output_shapes"
    value {
      list {
        shape {
          dim {
            size: 1
          }
        }
      }
    }
  }
}
node {
  name: "linear/linear/x_3_X_y_3/x_3_X_y_3_weights/Const"
  op: "Const"
  attr {
    key: "_output_shapes"
    value {
      list {
        shape {
          dim {
            size: 1
          }
        }
      }
    }
  }
  attr {
    key: "dtype"
    value {
      type: DT_INT32
    }
  }
  attr {
    key: "value"
    value {
      tensor {
        dtype: DT_INT32
        tensor_shape {
          dim {
            size: 1
          }
        }
        int_val: 0
      }
    }
  }
}
node {
  name: "linear/linear/x_3_X_y_3/x_3_X_y_3_weights/Prod"
  op: "Prod"
  input: "linear/linear/x_3_X_y_3/x_3_X_y_3_weights/Slice"
  input: "linear/linear/x_3_X_y_3/x_3_X_y_3_weights/Const"
  attr {
    key: "T"
    value {
      type: DT_INT64
    }
  }
  attr {
    key: "Tidx"
    value {
      type: DT_INT32
    }
  }
  attr {
    key: "_output_shapes"
    value {
      list {
        shape {
        }
      }
    }
  }
  attr {
    key: "keep_dims"
    value {
      b: false
    }
  }
}
node {
  name: "linear/linear/x_3_X_y_3/x_3_X_y_3_weights/Gather/indices"
  op: "Const"
  attr {
    key: "_output_shapes"
    value {
      list {
        shape {
        }
      }
    }
  }
  attr {
    key: "dtype"
    value {
      type: DT_INT32
    }
  }
  attr {
    key: "value"
    value {
      tensor {
        dtype: DT_INT32
        tensor_shape {
        }
        int_val: 1
      }
    }
  }
}
node {
  name: "linear/linear/x_3_X_y_3/x_3_X_y_3_weights/Gather"
  op: "Gather"
  input: "linear/linear/cross_2:2"
  input: "linear/linear/x_3_X_y_3/x_3_X_y_3_weights/Gather/indices"
  attr {
    key: "Tindices"
    value {
      type: DT_INT32
    }
  }
  attr {
    key: "Tparams"
    value {
      type: DT_INT64
    }
  }
  attr {
    key: "_output_shapes"
    value {
      list {
        shape {
        }
      }
    }
  }
  attr {
    key: "validate_indices"
    value {
      b: true
    }
  }
}
node {
  name: "linear/linear/x_3_X_y_3/x_3_X_y_3_weights/Cast/x"
  op: "Pack"
  input: "linear/linear/x_3_X_y_3/x_3_X_y_3_weights/Prod"
  input: "linear/linear/x_3_X_y_3/x_3_X_y_3_weights/Gather"
  attr {
    key: "N"
    value {
      i: 2
    }
  }
  attr {
    key: "T"
    value {
      type: DT_INT64
    }
  }
  attr {
    key: "_output_shapes"
    value {
      list {
        shape {
          dim {
            size: 2
          }
        }
      }
    }
  }
  attr {
    key: "axis"
    value {
      i: 0
    }
  }
}
node {
  name: "linear/linear/x_3_X_y_3/x_3_X_y_3_weights/SparseReshape"
  op: "SparseReshape"
  input: "linear/linear/cross_2"
  input: "linear/linear/cross_2:2"
  input: "linear/linear/x_3_X_y_3/x_3_X_y_3_weights/Cast/x"
  attr {
    key: "_output_shapes"
    value {
      list {
        shape {
          dim {
            size: -1
          }
          dim {
            size: 2
          }
        }
        shape {
          dim {
            size: 2
          }
        }
      }
    }
  }
}
node {
  name: "linear/linear/x_3_X_y_3/x_3_X_y_3_weights/SparseReshape/Identity"
  op: "Identity"
  input: "linear/linear/cross_2:1"
  attr {
    key: "T"
    value {
      type: DT_INT64
    }
  }
  attr {
    key: "_output_shapes"
    value {
      list {
        shape {
          dim {
            size: -1
          }
        }
      }
    }
  }
}
node {
  name: "linear/linear/x_3_X_y_3/x_3_X_y_3_weights/GreaterEqual/y"
  op: "Const"
  attr {
    key: "_output_shapes"
    value {
      list {
        shape {
        }
      }
    }
  }
  attr {
    key: "dtype"
    value {
      type: DT_INT64
    }
  }
  attr {
    key: "value"
    value {
      tensor {
        dtype: DT_INT64
        tensor_shape {
        }
        int64_val: 0
      }
    }
  }
}
node {
  name: "linear/linear/x_3_X_y_3/x_3_X_y_3_weights/GreaterEqual"
  op: "GreaterEqual"
  input: "linear/linear/x_3_X_y_3/x_3_X_y_3_weights/SparseReshape/Identity"
  input: "linear/linear/x_3_X_y_3/x_3_X_y_3_weights/GreaterEqual/y"
  attr {
    key: "T"
    value {
      type: DT_INT64
    }
  }
  attr {
    key: "_output_shapes"
    value {
      list {
        shape {
          dim {
            size: -1
          }
        }
      }
    }
  }
}
node {
  name: "linear/linear/x_3_X_y_3/x_3_X_y_3_weights/Where"
  op: "Where"
  input: "linear/linear/x_3_X_y_3/x_3_X_y_3_weights/GreaterEqual"
  attr {
    key: "_output_shapes"
    value {
      list {
        shape {
          dim {
            size: -1
          }
          dim {
            size: 1
          }
        }
      }
    }
  }
}
node {
  name: "linear/linear/x_3_X_y_3/x_3_X_y_3_weights/Reshape/shape"
  op: "Const"
  attr {
    key: "_output_shapes"
    value {
      list {
        shape {
          dim {
            size: 1
          }
        }
      }
    }
  }
  attr {
    key: "dtype"
    value {
      type: DT_INT32
    }
  }
  attr {
    key: "value"
    value {
      tensor {
        dtype: DT_INT32
        tensor_shape {
          dim {
            size: 1
          }
        }
        int_val: -1
      }
    }
  }
}
node {
  name: "linear/linear/x_3_X_y_3/x_3_X_y_3_weights/Reshape"
  op: "Reshape"
  input: "linear/linear/x_3_X_y_3/x_3_X_y_3_weights/Where"
  input: "linear/linear/x_3_X_y_3/x_3_X_y_3_weights/Reshape/shape"
  attr {
    key: "T"
    value {
      type: DT_INT64
    }
  }
  attr {
    key: "Tshape"
    value {
      type: DT_INT32
    }
  }
  attr {
    key: "_output_shapes"
    value {
      list {
        shape {
          dim {
            size: -1
          }
        }
      }
    }
  }
}
node {
  name: "linear/linear/x_3_X_y_3/x_3_X_y_3_weights/Gather_1"
  op: "Gather"
  input: "linear/linear/x_3_X_y_3/x_3_X_y_3_weights/SparseReshape"
  input: "linear/linear/x_3_X_y_3/x_3_X_y_3_weights/Reshape"
  attr {
    key: "Tindices"
    value {
      type: DT_INT64
    }
  }
  attr {
    key: "Tparams"
    value {
      type: DT_INT64
    }
  }
  attr {
    key: "_output_shapes"
    value {
      list {
        shape {
          dim {
            size: -1
          }
          dim {
            size: 2
          }
        }
      }
    }
  }
  attr {
    key: "validate_indices"
    value {
      b: true
    }
  }
}
node {
  name: "linear/linear/x_3_X_y_3/x_3_X_y_3_weights/Gather_2"
  op: "Gather"
  input: "linear/linear/x_3_X_y_3/x_3_X_y_3_weights/SparseReshape/Identity"
  input: "linear/linear/x_3_X_y_3/x_3_X_y_3_weights/Reshape"
  attr {
    key: "Tindices"
    value {
      type: DT_INT64
    }
  }
  attr {
    key: "Tparams"
    value {
      type: DT_INT64
    }
  }
  attr {
    key: "_output_shapes"
    value {
      list {
        shape {
          dim {
            size: -1
          }
        }
      }
    }
  }
  attr {
    key: "validate_indices"
    value {
      b: true
    }
  }
}
node {
  name: "linear/linear/x_3_X_y_3/x_3_X_y_3_weights/Identity"
  op: "Identity"
  input: "linear/linear/x_3_X_y_3/x_3_X_y_3_weights/SparseReshape:1"
  attr {
    key: "T"
    value {
      type: DT_INT64
    }
  }
  attr {
    key: "_output_shapes"
    value {
      list {
        shape {
          dim {
            size: 2
          }
        }
      }
    }
  }
}
node {
  name: "linear/linear/x_3_X_y_3/x_3_X_y_3_weights/SparseFillEmptyRows/Const"
  op: "Const"
  attr {
    key: "_output_shapes"
    value {
      list {
        shape {
        }
      }
    }
  }
  attr {
    key: "dtype"
    value {
      type: DT_INT64
    }
  }
  attr {
    key: "value"
    value {
      tensor {
        dtype: DT_INT64
        tensor_shape {
        }
        int64_val: 0
      }
    }
  }
}
node {
  name: "linear/linear/x_3_X_y_3/x_3_X_y_3_weights/SparseFillEmptyRows/strided_slice/stack"
  op: "Const"
  attr {
    key: "_output_shapes"
    value {
      list {
        shape {
          dim {
            size: 1
          }
        }
      }
    }
  }
  attr {
    key: "dtype"
    value {
      type: DT_INT32
    }
  }
  attr {
    key: "value"
    value {
      tensor {
        dtype: DT_INT32
        tensor_shape {
          dim {
            size: 1
          }
        }
        int_val: 0
      }
    }
  }
}
node {
  name: "linear/linear/x_3_X_y_3/x_3_X_y_3_weights/SparseFillEmptyRows/strided_slice/stack_1"
  op: "Const"
  attr {
    key: "_output_shapes"
    value {
      list {
        shape {
          dim {
            size: 1
          }
        }
      }
    }
  }
  attr {
    key: "dtype"
    value {
      type: DT_INT32
    }
  }
  attr {
    key: "value"
    value {
      tensor {
        dtype: DT_INT32
        tensor_shape {
          dim {
            size: 1
          }
        }
        int_val: 1
      }
    }
  }
}
node {
  name: "linear/linear/x_3_X_y_3/x_3_X_y_3_weights/SparseFillEmptyRows/strided_slice/stack_2"
  op: "Const"
  attr {
    key: "_output_shapes"
    value {
      list {
        shape {
          dim {
            size: 1
          }
        }
      }
    }
  }
  attr {
    key: "dtype"
    value {
      type: DT_INT32
    }
  }
  attr {
    key: "value"
    value {
      tensor {
        dtype: DT_INT32
        tensor_shape {
          dim {
            size: 1
          }
        }
        int_val: 1
      }
    }
  }
}
node {
  name: "linear/linear/x_3_X_y_3/x_3_X_y_3_weights/SparseFillEmptyRows/strided_slice"
  op: "StridedSlice"
  input: "linear/linear/x_3_X_y_3/x_3_X_y_3_weights/Identity"
  input: "linear/linear/x_3_X_y_3/x_3_X_y_3_weights/SparseFillEmptyRows/strided_slice/stack"
  input: "linear/linear/x_3_X_y_3/x_3_X_y_3_weights/SparseFillEmptyRows/strided_slice/stack_1"
  input: "linear/linear/x_3_X_y_3/x_3_X_y_3_weights/SparseFillEmptyRows/strided_slice/stack_2"
  attr {
    key: "Index"
    value {
      type: DT_INT32
    }
  }
  attr {
    key: "T"
    value {
      type: DT_INT64
    }
  }
  attr {
    key: "_output_shapes"
    value {
      list {
        shape {
        }
      }
    }
  }
  attr {
    key: "begin_mask"
    value {
      i: 0
    }
  }
  attr {
    key: "ellipsis_mask"
    value {
      i: 0
    }
  }
  attr {
    key: "end_mask"
    value {
      i: 0
    }
  }
  attr {
    key: "new_axis_mask"
    value {
      i: 0
    }
  }
  attr {
    key: "shrink_axis_mask"
    value {
      i: 1
    }
  }
}
node {
  name: "linear/linear/x_3_X_y_3/x_3_X_y_3_weights/SparseFillEmptyRows/Cast"
  op: "Cast"
  input: "linear/linear/x_3_X_y_3/x_3_X_y_3_weights/SparseFillEmptyRows/strided_slice"
  attr {
    key: "DstT"
    value {
      type: DT_INT32
    }
  }
  attr {
    key: "SrcT"
    value {
      type: DT_INT64
    }
  }
  attr {
    key: "_output_shapes"
    value {
      list {
        shape {
        }
      }
    }
  }
}
node {
  name: "linear/linear/x_3_X_y_3/x_3_X_y_3_weights/SparseFillEmptyRows/range/start"
  op: "Const"
  attr {
    key: "_output_shapes"
    value {
      list {
        shape {
        }
      }
    }
  }
  attr {
    key: "dtype"
    value {
      type: DT_INT32
    }
  }
  attr {
    key: "value"
    value {
      tensor {
        dtype: DT_INT32
        tensor_shape {
        }
        int_val: 0
      }
    }
  }
}
node {
  name: "linear/linear/x_3_X_y_3/x_3_X_y_3_weights/SparseFillEmptyRows/range/delta"
  op: "Const"
  attr {
    key: "_output_shapes"
    value {
      list {
        shape {
        }
      }
    }
  }
  attr {
    key: "dtype"
    value {
      type: DT_INT32
    }
  }
  attr {
    key: "value"
    value {
      tensor {
        dtype: DT_INT32
        tensor_shape {
        }
        int_val: 1
      }
    }
  }
}
node {
  name: "linear/linear/x_3_X_y_3/x_3_X_y_3_weights/SparseFillEmptyRows/range"
  op: "Range"
  input: "linear/linear/x_3_X_y_3/x_3_X_y_3_weights/SparseFillEmptyRows/range/start"
  input: "linear/linear/x_3_X_y_3/x_3_X_y_3_weights/SparseFillEmptyRows/Cast"
  input: "linear/linear/x_3_X_y_3/x_3_X_y_3_weights/SparseFillEmptyRows/range/delta"
  attr {
    key: "Tidx"
    value {
      type: DT_INT32
    }
  }
  attr {
    key: "_output_shapes"
    value {
      list {
        shape {
          dim {
            size: -1
          }
        }
      }
    }
  }
}
node {
  name: "linear/linear/x_3_X_y_3/x_3_X_y_3_weights/SparseFillEmptyRows/Cast_1"
  op: "Cast"
  input: "linear/linear/x_3_X_y_3/x_3_X_y_3_weights/SparseFillEmptyRows/range"
  attr {
    key: "DstT"
    value {
      type: DT_INT64
    }
  }
  attr {
    key: "SrcT"
    value {
      type: DT_INT32
    }
  }
  attr {
    key: "_output_shapes"
    value {
      list {
        shape {
          dim {
            size: -1
          }
        }
      }
    }
  }
}
node {
…
  input: "save/SaveV2/tensor_names"
  input: "save/SaveV2/shape_and_slices"
  input: "global_step"
  input: "linear/bias_weight/part_0/read"
  input: "linear/binary_logistic_head/linear/bias_weight/part_0/Ftrl/read"
  input: "linear/binary_logistic_head/linear/bias_weight/part_0/Ftrl_1/read"
  input: "linear/team/weights/part_0/read"
  input: "linear/binary_logistic_head/linear/team/weights/part_0/Ftrl/read"
  input: "linear/binary_logistic_head/linear/team/weights/part_0/Ftrl_1/read"
  input: "linear/x_1_X_y_1/weights/part_0/read"
  input: "linear/binary_logistic_head/linear/x_1_X_y_1/weights/part_0/Ftrl/read"
  input: "linear/binary_logistic_head/linear/x_1_X_y_1/weights/part_0/Ftrl_1/read"
  input: "linear/x_2_X_y_2/weights/part_0/read"
  input: "linear/binary_logistic_head/linear/x_2_X_y_2/weights/part_0/Ftrl/read"
  input: "linear/binary_logistic_head/linear/x_2_X_y_2/weights/part_0/Ftrl_1/read"
  input: "linear/x_3_X_y_3/weights/part_0/read"
  input: "linear/binary_logistic_head/linear/x_3_X_y_3/weights/part_0/Ftrl/read"
  input: "linear/binary_logistic_head/linear/x_3_X_y_3/weights/part_0/Ftrl_1/read"
  input: "linear/x_4_X_y_4/weights/part_0/read"
  input: "linear/binary_logistic_head/linear/x_4_X_y_4/weights/part_0/Ftrl/read"
  input: "linear/binary_logistic_head/linear/x_4_X_y_4/weights/part_0/Ftrl_1/read"
  input: "linear/x_5_X_y_5/weights/part_0/read"
  input: "linear/binary_logistic_head/linear/x_5_X_y_5/weights/part_0/Ftrl/read"
  input: "linear/binary_logistic_head/linear/x_5_X_y_5/weights/part_0/Ftrl_1/read"
  attr {
    key: "dtypes"
    value {
      list {
        type: DT_INT64
        type: DT_FLOAT
        type: DT_FLOAT
        type: DT_FLOAT
        type: DT_FLOAT
        type: DT_FLOAT
        type: DT_FLOAT
        type: DT_FLOAT
        type: DT_FLOAT
        type: DT_FLOAT
        type: DT_FLOAT
        type: DT_FLOAT
        type: DT_FLOAT
        type: DT_FLOAT
        type: DT_FLOAT
        type: DT_FLOAT
        type: DT_FLOAT
        type: DT_FLOAT
        type: DT_FLOAT
        type: DT_FLOAT
        type: DT_FLOAT
        type: DT_FLOAT
      }
    }
  }
}
node {
  name: "save/control_dependency"
  op: "Identity"
  input: "save/ShardedFilename"
  input: "^save/SaveV2"
  attr {
    key: "T"
    value {
      type: DT_STRING
    }
  }
  attr {
    key: "_class"
    value {
      list {
        s: "loc:@save/ShardedFilename"
      }
    }
  }
  attr {
    key: "_output_shapes"
    value {
      list {
        shape {
        }
      }
    }
  }
}
node {
  name: "save/MergeV2Checkpoints/checkpoint_prefixes"
  op: "Pack"
  input: "save/ShardedFilename"
  input: "^save/control_dependency"
  attr {
    key: "N"
    value {
      i: 1
    }
  }
  attr {
    key: "T"
    value {
      type: DT_STRING
    }
  }
  attr {
    key: "_output_shapes"
    value {
      list {
        shape {
          dim {
            size: 1
          }
        }
      }
    }
  }
  attr {
    key: "axis"
    value {
      i: 0
    }
  }
}
node {
  name: "save/MergeV2Checkpoints"
  op: "MergeV2Checkpoints"
  input: "save/MergeV2Checkpoints/checkpoint_prefixes"
  input: "save/Const"
  attr {
    key: "delete_old_dirs"
    value {
      b: true
    }
  }
}
node {
  name: "save/Identity"
  op: "Identity"
  input: "save/Const"
  input: "^save/control_dependency"
  input: "^save/MergeV2Checkpoints"
  attr {
    key: "T"
    value {
      type: DT_STRING
    }
  }
  attr {
    key: "_output_shapes"
    value {
      list {
        shape {
        }
      }
    }
  }
}
node {
  name: "save/RestoreV2/tensor_names"
  op: "Const"
  attr {
    key: "_output_shapes"
    value {
      list {
        shape {
          dim {
            size: 1
          }
        }
      }
    }
  }
  attr {
    key: "dtype"
    value {
      type: DT_STRING
    }
  }
  attr {
    key: "value"
    value {
      tensor {
        dtype: DT_STRING
        tensor_shape {
          dim {
            size: 1
          }
        }
        string_val: "global_step"
      }
    }
  }
}
node {
  name: "save/RestoreV2/shape_and_slices"
  op: "Const"
  attr {
    key: "_output_shapes"
    value {
      list {
        shape {
          dim {
            size: 1
          }
        }
      }
    }
  }
  attr {
    key: "dtype"
    value {
      type: DT_STRING
    }
  }
  attr {
    key: "value"
    value {
      tensor {
        dtype: DT_STRING
        tensor_shape {
          dim {
            size: 1
          }
        }
        string_val: ""
      }
    }
  }
}
node {
  name: "save/RestoreV2"
  op: "RestoreV2"
  input: "save/Const"
  input: "save/RestoreV2/tensor_names"
  input: "save/RestoreV2/shape_and_slices"
  attr {
    key: "_output_shapes"
    value {
      list {
        shape {
          unknown_rank: true
        }
      }
    }
  }
  attr {
    key: "dtypes"
    value {
      list {
        type: DT_INT64
      }
    }
  }
}
node {
  name: "save/Assign"
  op: "Assign"
  input: "global_step"
  input: "save/RestoreV2"
  attr {
    key: "T"
    value {
      type: DT_INT64
    }
  }
  attr {
    key: "_class"
    value {
      list {
        s: "loc:@global_step"
      }
    }
  }
  attr {
    key: "_output_shapes"
    value {
      list {
        shape {
        }
      }
    }
  }
  attr {
    key: "use_locking"
    value {
      b: true
    }
  }
  attr {
    key: "validate_shape"
    value {
      b: true
    }
  }
}
node {
  name: "save/RestoreV2_1/tensor_names"
  op: "Const"
  attr {
    key: "_output_shapes"
    value {
      list {
        shape {
          dim {
            size: 1
          }
        }
      }
    }
  }
  attr {
    key: "dtype"
    value {
      type: DT_STRING
    }
  }
  attr {
    key: "value"
    value {
      tensor {
        dtype: DT_STRING
        tensor_shape {
          dim {
            size: 1
          }
        }
        string_val: "linear/bias_weight"
      }
    }
  }
}
node {
  name: "save/RestoreV2_1/shape_and_slices"
  op: "Const"
  attr {
    key: "_output_shapes"
    value {
      list {
        shape {
          dim {
            size: 1
          }
        }
      }
    }
  }
  attr {
    key: "dtype"
    value {
      type: DT_STRING
    }
  }
  attr {
    key: "value"
    value {
      tensor {
        dtype: DT_STRING
        tensor_shape {
          dim {
            size: 1
          }
        }
        string_val: "1 0,1"
      }
    }
  }
}
node {
  name: "save/RestoreV2_1"
  op: "RestoreV2"
  input: "save/Const"
  input: "save/RestoreV2_1/tensor_names"
  input: "save/RestoreV2_1/shape_and_slices"
  attr {
    key: "_output_shapes"
    value {
      list {
        shape {
          unknown_rank: true
        }
      }
    }
  }
  attr {
    key: "dtypes"
    value {
      list {
        type: DT_FLOAT
      }
    }
  }
}
node {
  name: "save/Assign_1"
  op: "Assign"
  input: "linear/bias_weight/part_0"
  input: "save/RestoreV2_1"
  attr {
    key: "T"
    value {
      type: DT_FLOAT
    }
  }
  attr {
    key: "_class"
    value {
      list {
        s: "loc:@linear/bias_weight/part_0"
      }
    }
  }
  attr {
    key: "_output_shapes"
    value {
      list {
        shape {
          dim {
            size: 1
          }
        }
      }
    }
  }
  attr {
    key: "use_locking"
    value {
      b: true
    }
  }
  attr {
    key: "validate_shape"
    value {
      b: true
    }
  }
}
node {
  name: "save/RestoreV2_2/tensor_names"
  op: "Const"
  attr {
    key: "_output_shapes"
    value {
      list {
        shape {
          dim {
            size: 1
          }
        }
      }
    }
  }
  attr {
    key: "dtype"
    value {
      type: DT_STRING
    }
  }
  attr {
    key: "value"
    value {
      tensor {
        dtype: DT_STRING
        tensor_shape {
          dim {
            size: 1
          }
        }
        string_val: "linear/bias_weight/d/linear/bias_weight/part_0/Ftrl"
      }
    }
  }
}
node {
  name: "save/RestoreV2_2/shape_and_slices"
  op: "Const"
  attr {
    key: "_output_shapes"
    value {
      list {
        shape {
          dim {
            size: 1
          }
        }
      }
    }
  }
  attr {
    key: "dtype"
    value {
      type: DT_STRING
    }
  }
  attr {
    key: "value"
    value {
      tensor {
        dtype: DT_STRING
        tensor_shape {
          dim {
            size: 1
          }
        }
        string_val: "1 0,1"
      }
    }
  }
}
node {
  name: "save/RestoreV2_2"
  op: "RestoreV2"
  input: "save/Const"
  input: "save/RestoreV2_2/tensor_names"
  input: "save/RestoreV2_2/shape_and_slices"
  attr {
    key: "_output_shapes"
    value {
      list {
        shape {
          unknown_rank: true
        }
      }
    }
  }
  attr {
    key: "dtypes"
    value {
      list {
        type: DT_FLOAT
      }
    }
  }
}
node {
  name: "save/Assign_2"
  op: "Assign"
  input: "linear/binary_logistic_head/linear/bias_weight/part_0/Ftrl"
  input: "save/RestoreV2_2"
  attr {
    key: "T"
    value {
      type: DT_FLOAT
    }
  }
  attr {
    key: "_class"
    value {
      list {
        s: "loc:@linear/bias_weight/part_0"
      }
    }
  }
  attr {
    key: "_output_shapes"
    value {
      list {
        shape {
          dim {
            size: 1
          }
        }
      }
    }
  }
  attr {
    key: "use_locking"
    value {
      b: true
    }
  }
  attr {
    key: "validate_shape"
    value {
      b: true
    }
  }
}
node {
  name: "save/RestoreV2_3/tensor_names"
  op: "Const"
  attr {
    key: "_output_shapes"
    value {
      list {
        shape {
          dim {
            size: 1
          }
        }
      }
    }
  }
  attr {
    key: "dtype"
    value {
      type: DT_STRING
    }
  }
  attr {
    key: "value"
    value {
      tensor {
        dtype: DT_STRING
        tensor_shape {
          dim {
            size: 1
          }
        }
        string_val: "linear/bias_weight/d/linear/bias_weight/part_0/Ftrl_1"
      }
    }
  }
}
node {
  name: "save/RestoreV2_3/shape_and_slices"
  op: "Const"
  attr {
    key: "_output_shapes"
    value {
      list {
        shape {
          dim {
            size: 1
          }
        }
      }
    }
  }
  attr {
    key: "dtype"
    value {
      type: DT_STRING
    }
  }
  attr {
    key: "value"
    value {
      tensor {
        dtype: DT_STRING
        tensor_shape {
          dim {
            size: 1
          }
        }
        string_val: "1 0,1"
      }
    }
  }
}
node {
  name: "save/RestoreV2_3"
  op: "RestoreV2"
  input: "save/Const"
  input: "save/RestoreV2_3/tensor_names"
  input: "save/RestoreV2_3/shape_and_slices"
  attr {
    key: "_output_shapes"
    value {
      list {
        shape {
          unknown_rank: true
        }
      }
    }
  }
  attr {
    key: "dtypes"
    value {
      list {
        type: DT_FLOAT
      }
    }
  }
}
node {
  name: "save/Assign_3"
  op: "Assign"
  input: "linear/binary_logistic_head/linear/bias_weight/part_0/Ftrl_1"
  input: "save/RestoreV2_3"
  attr {
    key: "T"
    value {
      type: DT_FLOAT
    }
  }
  attr {
    key: "_class"
    value {
      list {
        s: "loc:@linear/bias_weight/part_0"
      }
    }
  }
  attr {
    key: "_output_shapes"
    value {
      list {
        shape {
          dim {
            size: 1
          }
        }
      }
    }
  }
  attr {
    key: "use_locking"
    value {
      b: true
    }
  }
  attr {
    key: "validate_shape"
    value {
      b: true
    }
  }
}
node {
  name: "save/RestoreV2_4/tensor_names"
  op: "Const"
  attr {
    key: "_output_shapes"
    value {
      list {
        shape {
          dim {
            size: 1
          }
        }
      }
    }
  }
  attr {
    key: "dtype"
    value {
      type: DT_STRING
    }
  }
  attr {
    key: "value"
    value {
      tensor {
        dtype: DT_STRING
        tensor_shape {
          dim {
            size: 1
          }
        }
        string_val: "linear/team/weights"
      }
    }
  }
}
node {
  name: "save/RestoreV2_4/shape_and_slices"
  op: "Const"
  attr {
    key: "_output_shapes"
    value {
      list {
        shape {
          dim {
            size: 1
          }
        }
      }
    }
  }
  attr {
    key: "dtype"
    value {
      type: DT_STRING
    }
  }
  attr {
    key: "value"
    value {
      tensor {
        dtype: DT_STRING
        tensor_shape {
          dim {
            size: 1
          }
        }
        string_val: "2 1 0,2:0,1"
      }
    }
  }
}
node {
  name: "save/RestoreV2_4"
  op: "RestoreV2"
  input: "save/Const"
  input: "save/RestoreV2_4/tensor_names"
  input: "save/RestoreV2_4/shape_and_slices"
  attr {
    key: "_output_shapes"
    value {
      list {
        shape {
          unknown_rank: true
        }
      }
    }
  }
  attr {
    key: "dtypes"
    value {
      list {
        type: DT_FLOAT
      }
    }
  }
}
node {
  name: "save/Assign_4"
  op: "Assign"
  input: "linear/team/weights/part_0"
  input: "save/RestoreV2_4"
  attr {
    key: "T"
    value {
      type: DT_FLOAT
    }
  }
  attr {
    key: "_class"
    value {
      list {
        s: "loc:@linear/team/weights/part_0"
      }
    }
  }
  attr {
    key: "_output_shapes"
    value {
      list {
        shape {
          dim {
            size: 2
          }
          dim {
            size: 1
          }
        }
      }
    }
  }
  attr {
    key: "use_locking"
    value {
      b: true
    }
  }
  attr {
    key: "validate_shape"
    value {
      b: true
    }
  }
}
node {
  name: "save/RestoreV2_5/tensor_names"
  op: "Const"
  attr {
    key: "_output_shapes"
    value {
      list {
        shape {
          dim {
            size: 1
          }
        }
      }
    }
  }
  attr {
    key: "dtype"
    value {
      type: DT_STRING
    }
  }
  attr {
    key: "value"
    value {
      tensor {
        dtype: DT_STRING
        tensor_shape {
          dim {
            size: 1
          }
        }
        string_val: "linear/team/weights//linear/team/weights/part_0/Ftrl"
      }
    }
  }
}
node {
  name: "save/RestoreV2_5/shape_and_slices"
  op: "Const"
  attr {
    key: "_output_shapes"
    value {
      list {
        shape {
          dim {
            size: 1
          }
        }
      }
    }
  }
  attr {
    key: "dtype"
    value {
      type: DT_STRING
    }
  }
  attr {
    key: "value"
    value {
      tensor {
        dtype: DT_STRING
        tensor_shape {
          dim {
            size: 1
          }
        }
        string_val: "2 1 0,2:0,1"
      }
    }
  }
}
node {
  name: "save/RestoreV2_5"
  op: "RestoreV2"
  input: "save/Const"
  input: "save/RestoreV2_5/tensor_names"
  input: "save/RestoreV2_5/shape_and_slices"
  attr {
    key: "_output_shapes"
    value {
      list {
        shape {
          unknown_rank: true
        }
      }
    }
  }
  attr {
    key: "dtypes"
    value {
      list {
        type: DT_FLOAT
      }
    }
  }
}
node {
  name: "save/Assign_5"
  op: "Assign"
  input: "linear/binary_logistic_head/linear/team/weights/part_0/Ftrl"
  input: "save/RestoreV2_5"
  attr {
    key: "T"
    value {
      type: DT_FLOAT
    }
  }
  attr {
    key: "_class"
    value {
      list {
        s: "loc:@linear/team/weights/part_0"
      }
    }
  }
  attr {
    key: "_output_shapes"
    value {
      list {
        shape {
          dim {
            size: 2
          }
          dim {
            size: 1
          }
        }
      }
    }
  }
  attr {
    key: "use_locking"
    value {
      b: true
    }
  }
  attr {
    key: "validate_shape"
    value {
      b: true
    }
  }
}
node {
  name: "save/RestoreV2_6/tensor_names"
  op: "Const"
  attr {
    key: "_output_shapes"
    value {
      list {
        shape {
          dim {
            size: 1
          }
        }
      }
    }
  }
  attr {
    key: "dtype"
    value {
      type: DT_STRING
    }
  }
  attr {
    key: "value"
    value {
      tensor {
        dtype: DT_STRING
        tensor_shape {
          dim {
            size: 1
          }
        }
        string_val: "linear/team/weights//linear/team/weights/part_0/Ftrl_1"
      }
    }
  }
}
node {
  name: "save/RestoreV2_6/shape_and_slices"
  op: "Const"
  attr {
    key: "_output_shapes"
    value {
      list {
        shape {
          dim {
            size: 1
          }
        }
      }
    }
  }
  attr {
    key: "dtype"
    value {
      type: DT_STRING
    }
  }
  attr {
    key: "value"
    value {
      tensor {
        dtype: DT_STRING
        tensor_shape {
          dim {
            size: 1
          }
        }
        string_val: "2 1 0,2:0,1"
      }
    }
  }
}
node {
  name: "save/RestoreV2_6"
  op: "RestoreV2"
  input: "save/Const"
  input: "save/RestoreV2_6/tensor_names"
  input: "save/RestoreV2_6/shape_and_slices"
  attr {
    key: "_output_shapes"
    value {
      list {
        shape {
          unknown_rank: true
        }
      }
    }
  }
  attr {
    key: "dtypes"
    value {
      list {
        type: DT_FLOAT
      }
    }
  }
}
node {
  name: "save/Assign_6"
  op: "Assign"
  input: "linear/binary_logistic_head/linear/team/weights/part_0/Ftrl_1"
  input: "save/RestoreV2_6"
  attr {
    key: "T"
    value {
      type: DT_FLOAT
    }
  }
  attr {
    key: "_class"
    value {
      list {
        s: "loc:@linear/team/weights/part_0"
      }
    }
  }
  attr {
    key: "_output_shapes"
    value {
      list {
        shape {
          dim {
            size: 2
          }
          dim {
            size: 1
          }
        }
      }
    }
  }
  attr {
    key: "use_locking"
    value {
      b: true
    }
  }
  attr {
    key: "validate_shape"
    value {
      b: true
    }
  }
}
node {
  name: "save/RestoreV2_7/tensor_names"
  op: "Const"
  attr {
    key: "_output_shapes"
    value {
      list {
        shape {
          dim {
            size: 1
          }
        }
      }
    }
  }
  attr {
    key: "dtype"
    value {
      type: DT_STRING
    }
  }
  attr {
    key: "value"
    value {
      tensor {
        dtype: DT_STRING
        tensor_shape {
          dim {
            size: 1
          }
        }
        string_val: "linear/x_1_X_y_1/weights"
      }
    }
  }
}
node {
  name: "save/RestoreV2_7/shape_and_slices"
  op: "Const"
  attr {
    key: "_output_shapes"
    value {
      list {
        shape {
          dim {
            size: 1
          }
        }
      }
    }
  }
  attr {
    key: "dtype"
    value {
      type: DT_STRING
    }
  }
  attr {
    key: "value"
    value {
      tensor {
        dtype: DT_STRING
        tensor_shape {
          dim {
            size: 1
          }
        }
        string_val: "1000000 1 0,1000000:0,1"
      }
    }
  }
}
node {
  name: "save/RestoreV2_7"
  op: "RestoreV2"
  input: "save/Const"
  input: "save/RestoreV2_7/tensor_names"
  input: "save/RestoreV2_7/shape_and_slices"
  attr {
    key: "_output_shapes"
    value {
      list {
        shape {
          unknown_rank: true
        }
      }
    }
  }
  attr {
    key: "dtypes"
    value {
      list {
        type: DT_FLOAT
      }
    }
  }
}
node {
  name: "save/Assign_7"
  op: "Assign"
  input: "linear/x_1_X_y_1/weights/part_0"
  input: "save/RestoreV2_7"
  attr {
    key: "T"
    value {
      type: DT_FLOAT
    }
  }
  attr {
    key: "_class"
    value {
      list {
        s: "loc:@linear/x_1_X_y_1/weights/part_0"
      }
    }
  }
  attr {
    key: "_output_shapes"
    value {
      list {
        shape {
          dim {
            size: 1000000
          }
          dim {
            size: 1
          }
        }
      }
    }
  }
  attr {
    key: "use_locking"
    value {
      b: true
    }
  }
  attr {
    key: "validate_shape"
    value {
      b: true
    }
  }
}
node {
  name: "save/RestoreV2_8/tensor_names"
  op: "Const"
  attr {
    key: "_output_shapes"
    value {
      list {
        shape {
          dim {
            size: 1
          }
        }
      }
    }
  }
  attr {
    key: "dtype"
    value {
      type: DT_STRING
    }
  }
  attr {
    key: "value"
    value {
      tensor {
        dtype: DT_STRING
        tensor_shape {
          dim {
            size: 1
          }
        }
        string_val: "linear/x_1_X_y_1/weights/ar/x_1_X_y_1/weights/part_0/Ftrl"
      }
    }
  }
}
node {
  name: "save/RestoreV2_8/shape_and_slices"
  op: "Const"
  attr {
    key: "_output_shapes"
    value {
      list {
        shape {
          dim {
            size: 1
          }
        }
      }
    }
  }
  attr {
    key: "dtype"
    value {
      type: DT_STRING
    }
  }
  attr {
    key: "value"
    value {
      tensor {
        dtype: DT_STRING
        tensor_shape {
          dim {
            size: 1
          }
        }
        string_val: "1000000 1 0,1000000:0,1"
      }
    }
  }
}
node {
  name: "save/RestoreV2_8"
  op: "RestoreV2"
  input: "save/Const"
  input: "save/RestoreV2_8/tensor_names"
  input: "save/RestoreV2_8/shape_and_slices"
  attr {
    key: "_output_shapes"
    value {
      list {
        shape {
          unknown_rank: true
        }
      }
    }
  }
  attr {
    key: "dtypes"
    value {
      list {
        type: DT_FLOAT
      }
    }
  }
}
node {
  name: "save/Assign_8"
  op: "Assign"
  input: "linear/binary_logistic_head/linear/x_1_X_y_1/weights/part_0/Ftrl"
  input: "save/RestoreV2_8"
  attr {
    key: "T"
    value {
      type: DT_FLOAT
    }
  }
  attr {
    key: "_class"
    value {
      list {
        s: "loc:@linear/x_1_X_y_1/weights/part_0"
      }
    }
  }
  attr {
    key: "_output_shapes"
    value {
      list {
        shape {
          dim {
            size: 1000000
          }
          dim {
            size: 1
          }
        }
      }
    }
  }
  attr {
    key: "use_locking"
    value {
      b: true
    }
  }
  attr {
    key: "validate_shape"
    value {
      b: true
    }
  }
}
node {
  name: "save/RestoreV2_9/tensor_names"
  op: "Const"
  attr {
    key: "_output_shapes"
    value {
      list {
        shape {
          dim {
            size: 1
          }
        }
      }
    }
  }
  attr {
    key: "dtype"
    value {
      type: DT_STRING
    }
  }
  attr {
    key: "value"
    value {
      tensor {
        dtype: DT_STRING
        tensor_shape {
          dim {
            size: 1
          }
        }
        string_val: "linear/x_1_X_y_1/weights/ar/x_1_X_y_1/weights/part_0/Ftrl_1"
      }
    }
  }
}
node {
  name: "save/RestoreV2_9/shape_and_slices"
  op: "Const"
  attr {
    key: "_output_shapes"
    value {
      list {
        shape {
          dim {
            size: 1
          }
        }
      }
    }
  }
  attr {
    key: "dtype"
    value {
      type: DT_STRING
    }
  }
  attr {
    key: "value"
    value {
      tensor {
        dtype: DT_STRING
        tensor_shape {
          dim {
            size: 1
          }
        }
        string_val: "1000000 1 0,1000000:0,1"
      }
    }
  }
}
node {
  name: "save/RestoreV2_9"
  op: "RestoreV2"
  input: "save/Const"
  input: "save/RestoreV2_9/tensor_names"
  input: "save/RestoreV2_9/shape_and_slices"
  attr {
    key: "_output_shapes"
    value {
      list {
        shape {
          unknown_rank: true
        }
      }
    }
  }
  attr {
    key: "dtypes"
    value {
      list {
        type: DT_FLOAT
      }
    }
  }
}
node {
  name: "save/Assign_9"
  op: "Assign"
  input: "linear/binary_logistic_head/linear/x_1_X_y_1/weights/part_0/Ftrl_1"
  input: "save/RestoreV2_9"
  attr {
    key: "T"
    value {
      type: DT_FLOAT
    }
  }
  attr {
    key: "_class"
    value {
      list {
        s: "loc:@linear/x_1_X_y_1/weights/part_0"
      }
    }
  }
  attr {
    key: "_output_shapes"
    value {
      list {
        shape {
          dim {
            size: 1000000
          }
          dim {
            size: 1
          }
        }
      }
    }
  }
  attr {
    key: "use_locking"
    value {
      b: true
    }
  }
  attr {
    key: "validate_shape"
    value {
      b: true
    }
  }
}
node {
  name: "save/RestoreV2_10/tensor_names"
  op: "Const"
  attr {
    key: "_output_shapes"
    value {
      list {
        shape {
          dim {
            size: 1
          }
        }
      }
    }
  }
  attr {
    key: "dtype"
    value {
      type: DT_STRING
    }
  }
  attr {
    key: "value"
    value {
      tensor {
        dtype: DT_STRING
        tensor_shape {
          dim {
            size: 1
          }
        }
        string_val: "linear/x_2_X_y_2/weights"
      }
    }
  }
}
node {
  name: "save/RestoreV2_10/shape_and_slices"
  op: "Const"
  attr {
    key: "_output_shapes"
    value {
      list {
        shape {
          dim {
            size: 1
          }
        }
      }
    }
  }
  attr {
    key: "dtype"
    value {
      type: DT_STRING
    }
  }
  attr {
    key: "value"
    value {
      tensor {
        dtype: DT_STRING
        tensor_shape {
          dim {
            size: 1
          }
        }
        string_val: "1000000 1 0,1000000:0,1"
      }
    }
  }
}
node {
  name: "save/RestoreV2_10"
  op: "RestoreV2"
  input: "save/Const"
  input: "save/RestoreV2_10/tensor_names"
  input: "save/RestoreV2_10/shape_and_slices"
  attr {
    key: "_output_shapes"
    value {
      list {
        shape {
          unknown_rank: true
        }
      }
    }
  }
  attr {
    key: "dtypes"
    value {
      list {
        type: DT_FLOAT
      }
    }
  }
}
node {
  name: "save/Assign_10"
  op: "Assign"
  input: "linear/x_2_X_y_2/weights/part_0"
  input: "save/RestoreV2_10"
  attr {
    key: "T"
    value {
      type: DT_FLOAT
    }
  }
  attr {
    key: "_class"
    value {
      list {
        s: "loc:@linear/x_2_X_y_2/weights/part_0"
      }
    }
  }
  attr {
    key: "_output_shapes"
    value {
      list {
        shape {
          dim {
            size: 1000000
          }
          dim {
            size: 1
          }
        }
      }
    }
  }
  attr {
    key: "use_locking"
    value {
      b: true
    }
  }
  attr {
    key: "validate_shape"
    value {
      b: true
    }
  }
}
node {
  name: "save/RestoreV2_11/tensor_names"
  op: "Const"
  attr {
    key: "_output_shapes"
    value {
      list {
        shape {
          dim {
            size: 1
          }
        }
      }
    }
  }
  attr {
    key: "dtype"
    value {
      type: DT_STRING
    }
  }
  attr {
    key: "value"
    value {
      tensor {
        dtype: DT_STRING
        tensor_shape {
          dim {
            size: 1
          }
        }
        string_val: "linear/x_2_X_y_2/weights/ar/x_2_X_y_2/weights/part_0/Ftrl"
      }
    }
  }
}
node {
  name: "save/RestoreV2_11/shape_and_slices"
  op: "Const"
  attr {
    key: "_output_shapes"
    value {
      list {
        shape {
          dim {
            size: 1
          }
        }
      }
    }
  }
  attr {
    key: "dtype"
    value {
      type: DT_STRING
    }
  }
  attr {
    key: "value"
    value {
      tensor {
        dtype: DT_STRING
        tensor_shape {
          dim {
            size: 1
          }
        }
        string_val: "1000000 1 0,1000000:0,1"
      }
    }
  }
}
node {
  name: "save/RestoreV2_11"
  op: "RestoreV2"
  input: "save/Const"
  input: "save/RestoreV2_11/tensor_names"
  input: "save/RestoreV2_11/shape_and_slices"
  attr {
    key: "_output_shapes"
    value {
      list {
        shape {
          unknown_rank: true
        }
      }
    }
  }
  attr {
    key: "dtypes"
    value {
      list {
        type: DT_FLOAT
      }
    }
  }
}
node {
  name: "save/Assign_11"
  op: "Assign"
  input: "linear/binary_logistic_head/linear/x_2_X_y_2/weights/part_0/Ftrl"
  input: "save/RestoreV2_11"
  attr {
    key: "T"
    value {
      type: DT_FLOAT
    }
  }
  attr {
    key: "_class"
    value {
      list {
        s: "loc:@linear/x_2_X_y_2/weights/part_0"
      }
    }
  }
  attr {
    key: "_output_shapes"
    value {
      list {
        shape {
          dim {
            size: 1000000
          }
          dim {
            size: 1
          }
        }
      }
    }
  }
  attr {
    key: "use_locking"
    value {
      b: true
    }
  }
  attr {
    key: "validate_shape"
    value {
      b: true
    }
  }
}
node {
  name: "save/RestoreV2_12/tensor_names"
  op: "Const"
  attr {
    key: "_output_shapes"
    value {
      list {
        shape {
          dim {
            size: 1
          }
        }
      }
    }
  }
  attr {
    key: "dtype"
    value {
      type: DT_STRING
    }
  }
  attr {
    key: "value"
    value {
      tensor {
        dtype: DT_STRING
        tensor_shape {
          dim {
            size: 1
          }
        }
        string_val: "linear/x_2_X_y_2/weights/ar/x_2_X_y_2/weights/part_0/Ftrl_1"
      }
    }
  }
}
node {
  name: "save/RestoreV2_12/shape_and_slices"
  op: "Const"
  attr {
    key: "_output_shapes"
    value {
      list {
        shape {
          dim {
            size: 1
          }
        }
      }
    }
  }
  attr {
    key: "dtype"
    value {
      type: DT_STRING
    }
  }
  attr {
    key: "value"
    value {
      tensor {
        dtype: DT_STRING
        tensor_shape {
          dim {
            size: 1
          }
        }
        string_val: "1000000 1 0,1000000:0,1"
      }
    }
  }
}
node {
  name: "save/RestoreV2_12"
  op: "RestoreV2"
  input: "save/Const"
  input: "save/RestoreV2_12/tensor_names"
  input: "save/RestoreV2_12/shape_and_slices"
  attr {
    key: "_output_shapes"
    value {
      list {
        shape {
          unknown_rank: true
        }
      }
    }
  }
  attr {
    key: "dtypes"
    value {
      list {
        type: DT_FLOAT
      }
    }
  }
}
node {
  name: "save/Assign_12"
  op: "Assign"
  input: "linear/binary_logistic_head/linear/x_2_X_y_2/weights/part_0/Ftrl_1"
  input: "save/RestoreV2_12"
  attr {
    key: "T"
    value {
      type: DT_FLOAT
    }
  }
  attr {
    key: "_class"
    value {
      list {
        s: "loc:@linear/x_2_X_y_2/weights/part_0"
      }
    }
  }
  attr {
    key: "_output_shapes"
    value {
      list {
        shape {
          dim {
            size: 1000000
          }
          dim {
            size: 1
          }
        }
      }
    }
  }
  attr {
    key: "use_locking"
    value {
      b: true
    }
  }
  attr {
    key: "validate_shape"
    value {
      b: true
    }
  }
}
node {
  name: "save/RestoreV2_13/tensor_names"
  op: "Const"
  attr {
    key: "_output_shapes"
    value {
      list {
        shape {
          dim {
            size: 1
          }
        }
      }
    }
  }
  attr {
    key: "dtype"
    value {
      type: DT_STRING
    }
  }
  attr {
    key: "value"
    value {
      tensor {
        dtype: DT_STRING
        tensor_shape {
          dim {
            size: 1
          }
        }
        string_val: "linear/x_3_X_y_3/weights"
      }
    }
  }
}
node {
  name: "save/RestoreV2_13/shape_and_slices"
  op: "Const"
  attr {
    key: "_output_shapes"
    value {
      list {
        shape {
          dim {
            size: 1
          }
        }
      }
    }
  }
  attr {
    key: "dtype"
    value {
      type: DT_STRING
    }
  }
  attr {
    key: "value"
    value {
      tensor {
        dtype: DT_STRING
        tensor_shape {
          dim {
            size: 1
          }
        }
        string_val: "1000000 1 0,1000000:0,1"
      }
    }
  }
}
node {
  name: "save/RestoreV2_13"
  op: "RestoreV2"
  input: "save/Const"
  input: "save/RestoreV2_13/tensor_names"
  input: "save/RestoreV2_13/shape_and_slices"
  attr {
    key: "_output_shapes"
    value {
      list {
        shape {
          unknown_rank: true
        }
      }
    }
  }
  attr {
    key: "dtypes"
    value {
      list {
        type: DT_FLOAT
      }
    }
  }
}
node {
  name: "save/Assign_13"
  op: "Assign"
  input: "linear/x_3_X_y_3/weights/part_0"
  input: "save/RestoreV2_13"
  attr {
    key: "T"
    value {
      type: DT_FLOAT
    }
  }
  attr {
    key: "_class"
    value {
      list {
        s: "loc:@linear/x_3_X_y_3/weights/part_0"
      }
    }
  }
  attr {
    key: "_output_shapes"
    value {
      list {
        shape {
          dim {
            size: 1000000
          }
          dim {
            size: 1
          }
        }
      }
    }
  }
  attr {
    key: "use_locking"
    value {
      b: true
    }
  }
  attr {
    key: "validate_shape"
    value {
      b: true
    }
  }
}
node {
  name: "save/RestoreV2_14/tensor_names"
  op: "Const"
  attr {
    key: "_output_shapes"
    value {
      list {
        shape {
          dim {
            size: 1
          }
        }
      }
    }
  }
  attr {
    key: "dtype"
    value {
      type: DT_STRING
    }
  }
  attr {
    key: "value"
    value {
      tensor {
        dtype: DT_STRING
        tensor_shape {
          dim {
            size: 1
          }
        }
        string_val: "linear/x_3_X_y_3/weights/ar/x_3_X_y_3/weights/part_0/Ftrl"
      }
    }
  }
}
node {
  name: "save/RestoreV2_14/shape_and_slices"
  op: "Const"
  attr {
    key: "_output_shapes"
    value {
      list {
        shape {
          dim {
            size: 1
          }
        }
      }
    }
  }
  attr {
    key: "dtype"
    value {
      type: DT_STRING
    }
  }
  attr {
    key: "value"
    value {
      tensor {
        dtype: DT_STRING
        tensor_shape {
          dim {
            size: 1
          }
        }
        string_val: "1000000 1 0,1000000:0,1"
      }
    }
  }
}
node {
  name: "save/RestoreV2_14"
  op: "RestoreV2"
  input: "save/Const"
  input: "save/RestoreV2_14/tensor_names"
  input: "save/RestoreV2_14/shape_and_slices"
  attr {
    key: "_output_shapes"
    value {
      list {
        shape {
          unknown_rank: true
        }
      }
    }
  }
  attr {
    key: "dtypes"
    value {
      list {
        type: DT_FLOAT
      }
    }
  }
}
node {
  name: "save/Assign_14"
  op: "Assign"
  input: "linear/binary_logistic_head/linear/x_3_X_y_3/weights/part_0/Ftrl"
  input: "save/RestoreV2_14"
  attr {
    key: "T"
    value {
      type: DT_FLOAT
    }
  }
  attr {
    key: "_class"
    value {
      list {
        s: "loc:@linear/x_3_X_y_3/weights/part_0"
      }
    }
  }
  attr {
    key: "_output_shapes"
    value {
      list {
        shape {
          dim {
            size: 1000000
          }
          dim {
            size: 1
          }
        }
      }
    }
  }
  attr {
    key: "use_locking"
    value {
      b: true
    }
  }
  attr {
    key: "validate_shape"
    value {
      b: true
    }
  }
}
node {
  name: "save/RestoreV2_15/tensor_names"
  op: "Const"
  attr {
    key: "_output_shapes"
    value {
      list {
        shape {
          dim {
            size: 1
          }
        }
      }
    }
  }
  attr {
    key: "dtype"
    value {
      type: DT_STRING
    }
  }
  attr {
    key: "value"
    value {
      tensor {
        dtype: DT_STRING
        tensor_shape {
          dim {
            size: 1
          }
        }
        string_val: "linear/x_3_X_y_3/weights/ar/x_3_X_y_3/weights/part_0/Ftrl_1"
      }
    }
  }
}
node {
  name: "save/RestoreV2_15/shape_and_slices"
  op: "Const"
  attr {
    key: "_output_shapes"
    value {
      list {
        shape {
          dim {
            size: 1
          }
        }
      }
    }
  }
  attr {
    key: "dtype"
    value {
      type: DT_STRING
    }
  }
  attr {
    key: "value"
    value {
      tensor {
        dtype: DT_STRING
        tensor_shape {
          dim {
            size: 1
          }
        }
        string_val: "1000000 1 0,1000000:0,1"
      }
    }
  }
}
node {
  name: "save/RestoreV2_15"
  op: "RestoreV2"
  input: "save/Const"
  input: "save/RestoreV2_15/tensor_names"
  input: "save/RestoreV2_15/shape_and_slices"
  attr {
    key: "_output_shapes"
    value {
      list {
        shape {
          unknown_rank: true
        }
      }
    }
  }
  attr {
    key: "dtypes"
    value {
      list {
        type: DT_FLOAT
      }
    }
  }
}
node {
  name: "save/Assign_15"
  op: "Assign"
  input: "linear/binary_logistic_head/linear/x_3_X_y_3/weights/part_0/Ftrl_1"
  input: "save/RestoreV2_15"
  attr {
    key: "T"
    value {
      type: DT_FLOAT
    }
  }
  attr {
    key: "_class"
    value {
      list {
        s: "loc:@linear/x_3_X_y_3/weights/part_0"
      }
    }
  }
  attr {
    key: "_output_shapes"
    value {
      list {
        shape {
          dim {
            size: 1000000
          }
          dim {
            size: 1
          }
        }
      }
    }
  }
  attr {
    key: "use_locking"
    value {
      b: true
    }
  }
  attr {
    key: "validate_shape"
    value {
      b: true
    }
  }
}
node {
  name: "save/RestoreV2_16/tensor_names"
  op: "Const"
  attr {
    key: "_output_shapes"
    value {
      list {
        shape {
          dim {
            size: 1
          }
        }
      }
    }
  }
  attr {
    key: "dtype"
    value {
      type: DT_STRING
    }
  }
  attr {
    key: "value"
    value {
      tensor {
        dtype: DT_STRING
        tensor_shape {
          dim {
            size: 1
          }
        }
        string_val: "linear/x_4_X_y_4/weights"
      }
    }
  }
}
node {
  name: "save/RestoreV2_16/shape_and_slices"
  op: "Const"
  attr {
    key: "_output_shapes"
    value {
      list {
        shape {
          dim {
            size: 1
          }
        }
      }
    }
  }
  attr {
    key: "dtype"
    value {
      type: DT_STRING
    }
  }
  attr {
    key: "value"
    value {
      tensor {
        dtype: DT_STRING
        tensor_shape {
          dim {
            size: 1
          }
        }
        string_val: "1000000 1 0,1000000:0,1"
      }
    }
  }
}
node {
  name: "save/RestoreV2_16"
  op: "RestoreV2"
  input: "save/Const"
  input: "save/RestoreV2_16/tensor_names"
  input: "save/RestoreV2_16/shape_and_slices"
  attr {
    key: "_output_shapes"
    value {
      list {
        shape {
          unknown_rank: true
        }
      }
    }
  }
  attr {
    key: "dtypes"
    value {
      list {
        type: DT_FLOAT
      }
    }
  }
}
node {
  name: "save/Assign_16"
  op: "Assign"
  input: "linear/x_4_X_y_4/weights/part_0"
  input: "save/RestoreV2_16"
  attr {
    key: "T"
    value {
      type: DT_FLOAT
    }
  }
  attr {
    key: "_class"
    value {
      list {
        s: "loc:@linear/x_4_X_y_4/weights/part_0"
      }
    }
  }
  attr {
    key: "_output_shapes"
    value {
      list {
        shape {
          dim {
            size: 1000000
          }
          dim {
            size: 1
          }
        }
      }
    }
  }
  attr {
    key: "use_locking"
    value {
      b: true
    }
  }
  attr {
    key: "validate_shape"
    value {
      b: true
    }
  }
}
node {
  name: "save/RestoreV2_17/tensor_names"
  op: "Const"
  attr {
    key: "_output_shapes"
    value {
      list {
        shape {
          dim {
            size: 1
          }
        }
      }
    }
  }
  attr {
    key: "dtype"
    value {
      type: DT_STRING
    }
  }
  attr {
    key: "value"
    value {
      tensor {
        dtype: DT_STRING
        tensor_shape {
          dim {
            size: 1
          }
        }
        string_val: "linear/x_4_X_y_4/weights/ar/x_4_X_y_4/weights/part_0/Ftrl"
      }
    }
  }
}
node {
  name: "save/RestoreV2_17/shape_and_slices"
  op: "Const"
  attr {
    key: "_output_shapes"
    value {
      list {
        shape {
          dim {
            size: 1
          }
        }
      }
    }
  }
  attr {
    key: "dtype"
    value {
      type: DT_STRING
    }
  }
  attr {
    key: "value"
    value {
      tensor {
        dtype: DT_STRING
        tensor_shape {
          dim {
            size: 1
          }
        }
        string_val: "1000000 1 0,1000000:0,1"
      }
    }
  }
}
node {
  name: "save/RestoreV2_17"
  op: "RestoreV2"
  input: "save/Const"
  input: "save/RestoreV2_17/tensor_names"
  input: "save/RestoreV2_17/shape_and_slices"
  attr {
    key: "_output_shapes"
    value {
      list {
        shape {
          unknown_rank: true
        }
      }
    }
  }
  attr {
    key: "dtypes"
    value {
      list {
        type: DT_FLOAT
      }
    }
  }
}
node {
  name: "save/Assign_17"
  op: "Assign"
  input: "linear/binary_logistic_head/linear/x_4_X_y_4/weights/part_0/Ftrl"
  input: "save/RestoreV2_17"
  attr {
    key: "T"
    value {
      type: DT_FLOAT
    }
  }
  attr {
    key: "_class"
    value {
      list {
        s: "loc:@linear/x_4_X_y_4/weights/part_0"
      }
    }
  }
  attr {
    key: "_output_shapes"
    value {
      list {
        shape {
          dim {
            size: 1000000
          }
          dim {
            size: 1
          }
        }
      }
    }
  }
  attr {
    key: "use_locking"
    value {
      b: true
    }
  }
  attr {
    key: "validate_shape"
    value {
      b: true
    }
  }
}
node {
  name: "save/RestoreV2_18/tensor_names"
  op: "Const"
  attr {
    key: "_output_shapes"
    value {
      list {
        shape {
          dim {
            size: 1
          }
        }
      }
    }
  }
  attr {
    key: "dtype"
    value {
      type: DT_STRING
    }
  }
  attr {
    key: "value"
    value {
      tensor {
        dtype: DT_STRING
        tensor_shape {
          dim {
            size: 1
          }
        }
        string_val: "linear/x_4_X_y_4/weights/ar/x_4_X_y_4/weights/part_0/Ftrl_1"
      }
    }
  }
}
node {
  name: "save/RestoreV2_18/shape_and_slices"
  op: "Const"
  attr {
    key: "_output_shapes"
    value {
      list {
        shape {
          dim {
            size: 1
          }
        }
      }
    }
  }
  attr {
    key: "dtype"
    value {
      type: DT_STRING
    }
  }
  attr {
    key: "value"
    value {
      tensor {
        dtype: DT_STRING
        tensor_shape {
          dim {
            size: 1
          }
        }
        string_val: "1000000 1 0,1000000:0,1"
      }
    }
  }
}
node {
  name: "save/RestoreV2_18"
  op: "RestoreV2"
  input: "save/Const"
  input: "save/RestoreV2_18/tensor_names"
  input: "save/RestoreV2_18/shape_and_slices"
  attr {
    key: "_output_shapes"
    value {
      list {
        shape {
          unknown_rank: true
        }
      }
    }
  }
  attr {
    key: "dtypes"
    value {
      list {
        type: DT_FLOAT
      }
    }
  }
}
node {
  name: "save/Assign_18"
  op: "Assign"
  input: "linear/binary_logistic_head/linear/x_4_X_y_4/weights/part_0/Ftrl_1"
  input: "save/RestoreV2_18"
  attr {
    key: "T"
    value {
      type: DT_FLOAT
    }
  }
  attr {
    key: "_class"
    value {
      list {
        s: "loc:@linear/x_4_X_y_4/weights/part_0"
      }
    }
  }
  attr {
    key: "_output_shapes"
    value {
      list {
        shape {
          dim {
            size: 1000000
          }
          dim {
            size: 1
          }
        }
      }
    }
  }
  attr {
    key: "use_locking"
    value {
      b: true
    }
  }
  attr {
    key: "validate_shape"
    value {
      b: true
    }
  }
}
node {
  name: "save/RestoreV2_19/tensor_names"
  op: "Const"
  attr {
    key: "_output_shapes"
    value {
      list {
        shape {
          dim {
            size: 1
          }
        }
      }
    }
  }
  attr {
    key: "dtype"
    value {
      type: DT_STRING
    }
  }
  attr {
    key: "value"
    value {
      tensor {
        dtype: DT_STRING
        tensor_shape {
          dim {
            size: 1
          }
        }
        string_val: "linear/x_5_X_y_5/weights"
      }
    }
  }
}
node {
  name: "save/RestoreV2_19/shape_and_slices"
  op: "Const"
  attr {
    key: "_output_shapes"
    value {
      list {
        shape {
          dim {
            size: 1
          }
        }
      }
    }
  }
  attr {
    key: "dtype"
    value {
      type: DT_STRING
    }
  }
  attr {
    key: "value"
    value {
      tensor {
        dtype: DT_STRING
        tensor_shape {
          dim {
            size: 1
          }
        }
        string_val: "1000000 1 0,1000000:0,1"
      }
    }
  }
}
node {
  name: "save/RestoreV2_19"
  op: "RestoreV2"
  input: "save/Const"
  input: "save/RestoreV2_19/tensor_names"
  input: "save/RestoreV2_19/shape_and_slices"
  attr {
    key: "_output_shapes"
    value {
      list {
        shape {
          unknown_rank: true
        }
      }
    }
  }
  attr {
    key: "dtypes"
    value {
      list {
        type: DT_FLOAT
      }
    }
  }
}
node {
  name: "save/Assign_19"
  op: "Assign"
  input: "linear/x_5_X_y_5/weights/part_0"
  input: "save/RestoreV2_19"
  attr {
    key: "T"
    value {
      type: DT_FLOAT
    }
  }
  attr {
    key: "_class"
    value {
      list {
        s: "loc:@linear/x_5_X_y_5/weights/part_0"
      }
    }
  }
  attr {
    key: "_output_shapes"
    value {
      list {
        shape {
          dim {
            size: 1000000
          }
          dim {
            size: 1
          }
        }
      }
    }
  }
  attr {
    key: "use_locking"
    value {
      b: true
    }
  }
  attr {
    key: "validate_shape"
    value {
      b: true
    }
  }
}
node {
  name: "save/RestoreV2_20/tensor_names"
  op: "Const"
  attr {
    key: "_output_shapes"
    value {
      list {
        shape {
          dim {
            size: 1
          }
        }
      }
    }
  }
  attr {
    key: "dtype"
    value {
      type: DT_STRING
    }
  }
  attr {
    key: "value"
    value {
      tensor {
        dtype: DT_STRING
        tensor_shape {
          dim {
            size: 1
          }
        }
        string_val: "linear/x_5_X_y_5/weights/ar/x_5_X_y_5/weights/part_0/Ftrl"
      }
    }
  }
}
node {
  name: "save/RestoreV2_20/shape_and_slices"
  op: "Const"
  attr {
    key: "_output_shapes"
    value {
      list {
        shape {
          dim {
            size: 1
          }
        }
      }
    }
  }
  attr {
    key: "dtype"
    value {
      type: DT_STRING
    }
  }
  attr {
    key: "value"
    value {
      tensor {
        dtype: DT_STRING
        tensor_shape {
          dim {
            size: 1
          }
        }
        string_val: "1000000 1 0,1000000:0,1"
      }
    }
  }
}
node {
  name: "save/RestoreV2_20"
  op: "RestoreV2"
  input: "save/Const"
  input: "save/RestoreV2_20/tensor_names"
  input: "save/RestoreV2_20/shape_and_slices"
  attr {
    key: "_output_shapes"
    value {
      list {
        shape {
          unknown_rank: true
        }
      }
    }
  }
  attr {
    key: "dtypes"
    value {
      list {
        type: DT_FLOAT
      }
    }
  }
}
node {
  name: "save/Assign_20"
  op: "Assign"
  input: "linear/binary_logistic_head/linear/x_5_X_y_5/weights/part_0/Ftrl"
  input: "save/RestoreV2_20"
  attr {
    key: "T"
    value {
      type: DT_FLOAT
    }
  }
  attr {
    key: "_class"
    value {
      list {
        s: "loc:@linear/x_5_X_y_5/weights/part_0"
      }
    }
  }
  attr {
    key: "_output_shapes"
    value {
      list {
        shape {
          dim {
            size: 1000000
          }
          dim {
            size: 1
          }
        }
      }
    }
  }
  attr {
    key: "use_locking"
    value {
      b: true
    }
  }
  attr {
    key: "validate_shape"
    value {
      b: true
    }
  }
}
node {
  name: "save/RestoreV2_21/tensor_names"
  op: "Const"
  attr {
    key: "_output_shapes"
    value {
      list {
        shape {
          dim {
            size: 1
          }
        }
      }
    }
  }
  attr {
    key: "dtype"
    value {
      type: DT_STRING
    }
  }
  attr {
    key: "value"
    value {
      tensor {
        dtype: DT_STRING
        tensor_shape {
          dim {
            size: 1
          }
        }
        string_val: "linear/x_5_X_y_5/weights/ar/x_5_X_y_5/weights/part_0/Ftrl_1"
      }
    }
  }
}
node {
  name: "save/RestoreV2_21/shape_and_slices"
  op: "Const"
  attr {
    key: "_output_shapes"
    value {
      list {
        shape {
          dim {
            size: 1
          }
        }
      }
    }
  }
  attr {
    key: "dtype"
    value {
      type: DT_STRING
    }
  }
  attr {
    key: "value"
    value {
      tensor {
        dtype: DT_STRING
        tensor_shape {
          dim {
            size: 1
          }
        }
        string_val: "1000000 1 0,1000000:0,1"
      }
    }
  }
}
node {
  name: "save/RestoreV2_21"
  op: "RestoreV2"
  input: "save/Const"
  input: "save/RestoreV2_21/tensor_names"
  input: "save/RestoreV2_21/shape_and_slices"
  attr {
    key: "_output_shapes"
    value {
      list {
        shape {
          unknown_rank: true
        }
      }
    }
  }
  attr {
    key: "dtypes"
    value {
      list {
        type: DT_FLOAT
      }
    }
  }
}
node {
  name: "save/Assign_21"
  op: "Assign"
  input: "linear/binary_logistic_head/linear/x_5_X_y_5/weights/part_0/Ftrl_1"
  input: "save/RestoreV2_21"
  attr {
    key: "T"
    value {
      type: DT_FLOAT
    }
  }
  attr {
    key: "_class"
    value {
      list {
        s: "loc:@linear/x_5_X_y_5/weights/part_0"
      }
    }
  }
  attr {
    key: "_output_shapes"
    value {
      list {
        shape {
          dim {
            size: 1000000
          }
          dim {
            size: 1
          }
        }
      }
    }
  }
  attr {
    key: "use_locking"
    value {
      b: true
    }
  }
  attr {
    key: "validate_shape"
    value {
      b: true
    }
  }
}
node {
  name: "save/restore_shard"
  op: "NoOp"
  input: "^save/Assign"
  input: "^save/Assign_1"
  input: "^save/Assign_2"
  input: "^save/Assign_3"
  input: "^save/Assign_4"
  input: "^save/Assign_5"
  input: "^save/Assign_6"
  input: "^save/Assign_7"
  input: "^save/Assign_8"
  input: "^save/Assign_9"
  input: "^save/Assign_10"
  input: "^save/Assign_11"
  input: "^save/Assign_12"
  input: "^save/Assign_13"
  input: "^save/Assign_14"
  input: "^save/Assign_15"
  input: "^save/Assign_16"
  input: "^save/Assign_17"
  input: "^save/Assign_18"
  input: "^save/Assign_19"
  input: "^save/Assign_20"
  input: "^save/Assign_21"
}
node {
  name: "save/restore_all"
  op: "NoOp"
  input: "^save/restore_shard"
}
versions {
  producer: 22
}
